{"format": "graph-model", "generatedBy": "2.3.0", "convertedBy": "TensorFlow.js Converter v2.3.0", "userDefinedMetadata": {"signature": {"outputs": {"SemanticPredictions": {"name": "SemanticPredictions"}}}}, "modelTopology": {"node": [{"name": "ResizeBilinear_1/size", "op": "Const", "attr": {"value": {"tensor": {"dtype": "DT_INT32", "tensorShape": {"dim": [{"size": "2"}]}}}, "dtype": {"type": "DT_INT32"}}}, {"name": "aspp1_depthwise/depthwise/SpaceToBatchND/block_shape", "op": "Const", "attr": {"value": {"tensor": {"dtype": "DT_INT32", "tensorShape": {"dim": [{"size": "2"}]}}}, "dtype": {"type": "DT_INT32"}}}, {"name": "aspp1_depthwise/depthwise/SpaceToBatchND/paddings", "op": "Const", "attr": {"value": {"tensor": {"dtype": "DT_INT32", "tensorShape": {"dim": [{"size": "2"}, {"size": "2"}]}}}, "dtype": {"type": "DT_INT32"}}}, {"name": "aspp1_depthwise/depthwise_weights", "op": "Const", "attr": {"dtype": {"type": "DT_FLOAT"}, "value": {"tensor": {"dtype": "DT_FLOAT", "tensorShape": {"dim": [{"size": "3"}, {"size": "3"}, {"size": "2048"}, {"size": "1"}]}}}}}, {"name": "aspp1_depthwise/depthwise/BatchToSpaceND/block_shape", "op": "Const", "attr": {"dtype": {"type": "DT_INT32"}, "value": {"tensor": {"dtype": "DT_INT32", "tensorShape": {"dim": [{"size": "2"}]}}}}}, {"name": "aspp1_depthwise/depthwise/BatchToSpaceND/crops", "op": "Const", "attr": {"dtype": {"type": "DT_INT32"}, "value": {"tensor": {"dtype": "DT_INT32", "tensorShape": {"dim": [{"size": "2"}, {"size": "2"}]}}}}}, {"name": "aspp2_depthwise/depthwise/SpaceToBatchND/block_shape", "op": "Const", "attr": {"dtype": {"type": "DT_INT32"}, "value": {"tensor": {"dtype": "DT_INT32", "tensorShape": {"dim": [{"size": "2"}]}}}}}, {"name": "aspp2_depthwise/depthwise/SpaceToBatchND/paddings", "op": "Const", "attr": {"dtype": {"type": "DT_INT32"}, "value": {"tensor": {"dtype": "DT_INT32", "tensorShape": {"dim": [{"size": "2"}, {"size": "2"}]}}}}}, {"name": "aspp2_depthwise/depthwise_weights", "op": "Const", "attr": {"value": {"tensor": {"dtype": "DT_FLOAT", "tensorShape": {"dim": [{"size": "3"}, {"size": "3"}, {"size": "2048"}, {"size": "1"}]}}}, "dtype": {"type": "DT_FLOAT"}}}, {"name": "aspp2_depthwise/depthwise/BatchToSpaceND/block_shape", "op": "Const", "attr": {"value": {"tensor": {"dtype": "DT_INT32", "tensorShape": {"dim": [{"size": "2"}]}}}, "dtype": {"type": "DT_INT32"}}}, {"name": "aspp2_depthwise/depthwise/BatchToSpaceND/crops", "op": "Const", "attr": {"dtype": {"type": "DT_INT32"}, "value": {"tensor": {"dtype": "DT_INT32", "tensorShape": {"dim": [{"size": "2"}, {"size": "2"}]}}}}}, {"name": "xception_65/exit_flow/block1/unit_1/xception_module/separable_conv1_depthwise/depthwise/SpaceToBatchND/block_shape", "op": "Const", "attr": {"dtype": {"type": "DT_INT32"}, "value": {"tensor": {"dtype": "DT_INT32", "tensorShape": {"dim": [{"size": "2"}]}}}}}, {"name": "xception_65/exit_flow/block1/unit_1/xception_module/separable_conv1_depthwise/depthwise/SpaceToBatchND/paddings", "op": "Const", "attr": {"dtype": {"type": "DT_INT32"}, "value": {"tensor": {"dtype": "DT_INT32", "tensorShape": {"dim": [{"size": "2"}, {"size": "2"}]}}}}}, {"name": "xception_65/exit_flow/block1/unit_1/xception_module/separable_conv1_depthwise/depthwise_weights", "op": "Const", "attr": {"dtype": {"type": "DT_FLOAT"}, "value": {"tensor": {"dtype": "DT_FLOAT", "tensorShape": {"dim": [{"size": "3"}, {"size": "3"}, {"size": "728"}, {"size": "1"}]}}}}}, {"name": "xception_65/exit_flow/block1/unit_1/xception_module/separable_conv1_depthwise/depthwise/BatchToSpaceND/block_shape", "op": "Const", "attr": {"value": {"tensor": {"dtype": "DT_INT32", "tensorShape": {"dim": [{"size": "2"}]}}}, "dtype": {"type": "DT_INT32"}}}, {"name": "xception_65/exit_flow/block1/unit_1/xception_module/separable_conv1_depthwise/depthwise/BatchToSpaceND/crops", "op": "Const", "attr": {"dtype": {"type": "DT_INT32"}, "value": {"tensor": {"dtype": "DT_INT32", "tensorShape": {"dim": [{"size": "2"}, {"size": "2"}]}}}}}, {"name": "xception_65/exit_flow/block1/unit_1/xception_module/separable_conv2_depthwise/depthwise/SpaceToBatchND/block_shape", "op": "Const", "attr": {"dtype": {"type": "DT_INT32"}, "value": {"tensor": {"dtype": "DT_INT32", "tensorShape": {"dim": [{"size": "2"}]}}}}}, {"name": "xception_65/exit_flow/block1/unit_1/xception_module/separable_conv2_depthwise/depthwise/SpaceToBatchND/paddings", "op": "Const", "attr": {"dtype": {"type": "DT_INT32"}, "value": {"tensor": {"dtype": "DT_INT32", "tensorShape": {"dim": [{"size": "2"}, {"size": "2"}]}}}}}, {"name": "xception_65/exit_flow/block1/unit_1/xception_module/separable_conv2_depthwise/depthwise_weights", "op": "Const", "attr": {"dtype": {"type": "DT_FLOAT"}, "value": {"tensor": {"dtype": "DT_FLOAT", "tensorShape": {"dim": [{"size": "3"}, {"size": "3"}, {"size": "728"}, {"size": "1"}]}}}}}, {"name": "xception_65/exit_flow/block1/unit_1/xception_module/separable_conv2_depthwise/depthwise/BatchToSpaceND/block_shape", "op": "Const", "attr": {"value": {"tensor": {"dtype": "DT_INT32", "tensorShape": {"dim": [{"size": "2"}]}}}, "dtype": {"type": "DT_INT32"}}}, {"name": "xception_65/exit_flow/block1/unit_1/xception_module/separable_conv2_depthwise/depthwise/BatchToSpaceND/crops", "op": "Const", "attr": {"dtype": {"type": "DT_INT32"}, "value": {"tensor": {"dtype": "DT_INT32", "tensorShape": {"dim": [{"size": "2"}, {"size": "2"}]}}}}}, {"name": "xception_65/exit_flow/block1/unit_1/xception_module/separable_conv3_depthwise/depthwise/SpaceToBatchND/block_shape", "op": "Const", "attr": {"value": {"tensor": {"dtype": "DT_INT32", "tensorShape": {"dim": [{"size": "2"}]}}}, "dtype": {"type": "DT_INT32"}}}, {"name": "xception_65/exit_flow/block1/unit_1/xception_module/separable_conv3_depthwise/depthwise/SpaceToBatchND/paddings", "op": "Const", "attr": {"value": {"tensor": {"dtype": "DT_INT32", "tensorShape": {"dim": [{"size": "2"}, {"size": "2"}]}}}, "dtype": {"type": "DT_INT32"}}}, {"name": "xception_65/exit_flow/block1/unit_1/xception_module/separable_conv3_depthwise/depthwise_weights", "op": "Const", "attr": {"value": {"tensor": {"dtype": "DT_FLOAT", "tensorShape": {"dim": [{"size": "3"}, {"size": "3"}, {"size": "1024"}, {"size": "1"}]}}}, "dtype": {"type": "DT_FLOAT"}}}, {"name": "xception_65/exit_flow/block1/unit_1/xception_module/separable_conv3_depthwise/depthwise/BatchToSpaceND/block_shape", "op": "Const", "attr": {"value": {"tensor": {"dtype": "DT_INT32", "tensorShape": {"dim": [{"size": "2"}]}}}, "dtype": {"type": "DT_INT32"}}}, {"name": "xception_65/exit_flow/block1/unit_1/xception_module/separable_conv3_depthwise/depthwise/BatchToSpaceND/crops", "op": "Const", "attr": {"value": {"tensor": {"dtype": "DT_INT32", "tensorShape": {"dim": [{"size": "2"}, {"size": "2"}]}}}, "dtype": {"type": "DT_INT32"}}}, {"name": "xception_65/middle_flow/block1/unit_16/xception_module/separable_conv1_depthwise/depthwise/SpaceToBatchND/block_shape", "op": "Const", "attr": {"dtype": {"type": "DT_INT32"}, "value": {"tensor": {"dtype": "DT_INT32", "tensorShape": {"dim": [{"size": "2"}]}}}}}, {"name": "xception_65/middle_flow/block1/unit_16/xception_module/separable_conv1_depthwise/depthwise/SpaceToBatchND/paddings", "op": "Const", "attr": {"value": {"tensor": {"dtype": "DT_INT32", "tensorShape": {"dim": [{"size": "2"}, {"size": "2"}]}}}, "dtype": {"type": "DT_INT32"}}}, {"name": "xception_65/middle_flow/block1/unit_16/xception_module/separable_conv1_depthwise/depthwise_weights", "op": "Const", "attr": {"dtype": {"type": "DT_FLOAT"}, "value": {"tensor": {"dtype": "DT_FLOAT", "tensorShape": {"dim": [{"size": "3"}, {"size": "3"}, {"size": "728"}, {"size": "1"}]}}}}}, {"name": "xception_65/middle_flow/block1/unit_16/xception_module/separable_conv1_depthwise/depthwise/BatchToSpaceND/block_shape", "op": "Const", "attr": {"value": {"tensor": {"dtype": "DT_INT32", "tensorShape": {"dim": [{"size": "2"}]}}}, "dtype": {"type": "DT_INT32"}}}, {"name": "xception_65/middle_flow/block1/unit_16/xception_module/separable_conv1_depthwise/depthwise/BatchToSpaceND/crops", "op": "Const", "attr": {"value": {"tensor": {"dtype": "DT_INT32", "tensorShape": {"dim": [{"size": "2"}, {"size": "2"}]}}}, "dtype": {"type": "DT_INT32"}}}, {"name": "xception_65/middle_flow/block1/unit_16/xception_module/separable_conv2_depthwise/depthwise/SpaceToBatchND/block_shape", "op": "Const", "attr": {"dtype": {"type": "DT_INT32"}, "value": {"tensor": {"dtype": "DT_INT32", "tensorShape": {"dim": [{"size": "2"}]}}}}}, {"name": "xception_65/middle_flow/block1/unit_16/xception_module/separable_conv2_depthwise/depthwise/SpaceToBatchND/paddings", "op": "Const", "attr": {"dtype": {"type": "DT_INT32"}, "value": {"tensor": {"dtype": "DT_INT32", "tensorShape": {"dim": [{"size": "2"}, {"size": "2"}]}}}}}, {"name": "xception_65/middle_flow/block1/unit_16/xception_module/separable_conv2_depthwise/depthwise_weights", "op": "Const", "attr": {"value": {"tensor": {"dtype": "DT_FLOAT", "tensorShape": {"dim": [{"size": "3"}, {"size": "3"}, {"size": "728"}, {"size": "1"}]}}}, "dtype": {"type": "DT_FLOAT"}}}, {"name": "xception_65/middle_flow/block1/unit_16/xception_module/separable_conv2_depthwise/depthwise/BatchToSpaceND/block_shape", "op": "Const", "attr": {"value": {"tensor": {"dtype": "DT_INT32", "tensorShape": {"dim": [{"size": "2"}]}}}, "dtype": {"type": "DT_INT32"}}}, {"name": "xception_65/middle_flow/block1/unit_16/xception_module/separable_conv2_depthwise/depthwise/BatchToSpaceND/crops", "op": "Const", "attr": {"value": {"tensor": {"dtype": "DT_INT32", "tensorShape": {"dim": [{"size": "2"}, {"size": "2"}]}}}, "dtype": {"type": "DT_INT32"}}}, {"name": "xception_65/middle_flow/block1/unit_16/xception_module/separable_conv3_depthwise/depthwise/SpaceToBatchND/block_shape", "op": "Const", "attr": {"value": {"tensor": {"dtype": "DT_INT32", "tensorShape": {"dim": [{"size": "2"}]}}}, "dtype": {"type": "DT_INT32"}}}, {"name": "xception_65/middle_flow/block1/unit_16/xception_module/separable_conv3_depthwise/depthwise/SpaceToBatchND/paddings", "op": "Const", "attr": {"dtype": {"type": "DT_INT32"}, "value": {"tensor": {"dtype": "DT_INT32", "tensorShape": {"dim": [{"size": "2"}, {"size": "2"}]}}}}}, {"name": "xception_65/middle_flow/block1/unit_16/xception_module/separable_conv3_depthwise/depthwise_weights", "op": "Const", "attr": {"value": {"tensor": {"dtype": "DT_FLOAT", "tensorShape": {"dim": [{"size": "3"}, {"size": "3"}, {"size": "728"}, {"size": "1"}]}}}, "dtype": {"type": "DT_FLOAT"}}}, {"name": "xception_65/middle_flow/block1/unit_16/xception_module/separable_conv3_depthwise/depthwise/BatchToSpaceND/block_shape", "op": "Const", "attr": {"value": {"tensor": {"dtype": "DT_INT32", "tensorShape": {"dim": [{"size": "2"}]}}}, "dtype": {"type": "DT_INT32"}}}, {"name": "xception_65/middle_flow/block1/unit_16/xception_module/separable_conv3_depthwise/depthwise/BatchToSpaceND/crops", "op": "Const", "attr": {"dtype": {"type": "DT_INT32"}, "value": {"tensor": {"dtype": "DT_INT32", "tensorShape": {"dim": [{"size": "2"}, {"size": "2"}]}}}}}, {"name": "xception_65/middle_flow/block1/unit_15/xception_module/separable_conv1_depthwise/depthwise/SpaceToBatchND/block_shape", "op": "Const", "attr": {"dtype": {"type": "DT_INT32"}, "value": {"tensor": {"dtype": "DT_INT32", "tensorShape": {"dim": [{"size": "2"}]}}}}}, {"name": "xception_65/middle_flow/block1/unit_15/xception_module/separable_conv1_depthwise/depthwise/SpaceToBatchND/paddings", "op": "Const", "attr": {"value": {"tensor": {"dtype": "DT_INT32", "tensorShape": {"dim": [{"size": "2"}, {"size": "2"}]}}}, "dtype": {"type": "DT_INT32"}}}, {"name": "xception_65/middle_flow/block1/unit_15/xception_module/separable_conv1_depthwise/depthwise_weights", "op": "Const", "attr": {"dtype": {"type": "DT_FLOAT"}, "value": {"tensor": {"dtype": "DT_FLOAT", "tensorShape": {"dim": [{"size": "3"}, {"size": "3"}, {"size": "728"}, {"size": "1"}]}}}}}, {"name": "xception_65/middle_flow/block1/unit_15/xception_module/separable_conv1_depthwise/depthwise/BatchToSpaceND/block_shape", "op": "Const", "attr": {"dtype": {"type": "DT_INT32"}, "value": {"tensor": {"dtype": "DT_INT32", "tensorShape": {"dim": [{"size": "2"}]}}}}}, {"name": "xception_65/middle_flow/block1/unit_15/xception_module/separable_conv1_depthwise/depthwise/BatchToSpaceND/crops", "op": "Const", "attr": {"value": {"tensor": {"dtype": "DT_INT32", "tensorShape": {"dim": [{"size": "2"}, {"size": "2"}]}}}, "dtype": {"type": "DT_INT32"}}}, {"name": "xception_65/middle_flow/block1/unit_15/xception_module/separable_conv2_depthwise/depthwise/SpaceToBatchND/block_shape", "op": "Const", "attr": {"value": {"tensor": {"dtype": "DT_INT32", "tensorShape": {"dim": [{"size": "2"}]}}}, "dtype": {"type": "DT_INT32"}}}, {"name": "xception_65/middle_flow/block1/unit_15/xception_module/separable_conv2_depthwise/depthwise/SpaceToBatchND/paddings", "op": "Const", "attr": {"dtype": {"type": "DT_INT32"}, "value": {"tensor": {"dtype": "DT_INT32", "tensorShape": {"dim": [{"size": "2"}, {"size": "2"}]}}}}}, {"name": "xception_65/middle_flow/block1/unit_15/xception_module/separable_conv2_depthwise/depthwise_weights", "op": "Const", "attr": {"value": {"tensor": {"dtype": "DT_FLOAT", "tensorShape": {"dim": [{"size": "3"}, {"size": "3"}, {"size": "728"}, {"size": "1"}]}}}, "dtype": {"type": "DT_FLOAT"}}}, {"name": "xception_65/middle_flow/block1/unit_15/xception_module/separable_conv2_depthwise/depthwise/BatchToSpaceND/block_shape", "op": "Const", "attr": {"value": {"tensor": {"dtype": "DT_INT32", "tensorShape": {"dim": [{"size": "2"}]}}}, "dtype": {"type": "DT_INT32"}}}, {"name": "xception_65/middle_flow/block1/unit_15/xception_module/separable_conv2_depthwise/depthwise/BatchToSpaceND/crops", "op": "Const", "attr": {"dtype": {"type": "DT_INT32"}, "value": {"tensor": {"dtype": "DT_INT32", "tensorShape": {"dim": [{"size": "2"}, {"size": "2"}]}}}}}, {"name": "xception_65/middle_flow/block1/unit_15/xception_module/separable_conv3_depthwise/depthwise/SpaceToBatchND/block_shape", "op": "Const", "attr": {"value": {"tensor": {"dtype": "DT_INT32", "tensorShape": {"dim": [{"size": "2"}]}}}, "dtype": {"type": "DT_INT32"}}}, {"name": "xception_65/middle_flow/block1/unit_15/xception_module/separable_conv3_depthwise/depthwise/SpaceToBatchND/paddings", "op": "Const", "attr": {"value": {"tensor": {"dtype": "DT_INT32", "tensorShape": {"dim": [{"size": "2"}, {"size": "2"}]}}}, "dtype": {"type": "DT_INT32"}}}, {"name": "xception_65/middle_flow/block1/unit_15/xception_module/separable_conv3_depthwise/depthwise_weights", "op": "Const", "attr": {"value": {"tensor": {"dtype": "DT_FLOAT", "tensorShape": {"dim": [{"size": "3"}, {"size": "3"}, {"size": "728"}, {"size": "1"}]}}}, "dtype": {"type": "DT_FLOAT"}}}, {"name": "xception_65/middle_flow/block1/unit_15/xception_module/separable_conv3_depthwise/depthwise/BatchToSpaceND/block_shape", "op": "Const", "attr": {"value": {"tensor": {"dtype": "DT_INT32", "tensorShape": {"dim": [{"size": "2"}]}}}, "dtype": {"type": "DT_INT32"}}}, {"name": "xception_65/middle_flow/block1/unit_15/xception_module/separable_conv3_depthwise/depthwise/BatchToSpaceND/crops", "op": "Const", "attr": {"dtype": {"type": "DT_INT32"}, "value": {"tensor": {"dtype": "DT_INT32", "tensorShape": {"dim": [{"size": "2"}, {"size": "2"}]}}}}}, {"name": "xception_65/middle_flow/block1/unit_14/xception_module/separable_conv1_depthwise/depthwise/SpaceToBatchND/block_shape", "op": "Const", "attr": {"dtype": {"type": "DT_INT32"}, "value": {"tensor": {"dtype": "DT_INT32", "tensorShape": {"dim": [{"size": "2"}]}}}}}, {"name": "xception_65/middle_flow/block1/unit_14/xception_module/separable_conv1_depthwise/depthwise/SpaceToBatchND/paddings", "op": "Const", "attr": {"dtype": {"type": "DT_INT32"}, "value": {"tensor": {"dtype": "DT_INT32", "tensorShape": {"dim": [{"size": "2"}, {"size": "2"}]}}}}}, {"name": "xception_65/middle_flow/block1/unit_14/xception_module/separable_conv1_depthwise/depthwise_weights", "op": "Const", "attr": {"dtype": {"type": "DT_FLOAT"}, "value": {"tensor": {"dtype": "DT_FLOAT", "tensorShape": {"dim": [{"size": "3"}, {"size": "3"}, {"size": "728"}, {"size": "1"}]}}}}}, {"name": "xception_65/middle_flow/block1/unit_14/xception_module/separable_conv1_depthwise/depthwise/BatchToSpaceND/block_shape", "op": "Const", "attr": {"value": {"tensor": {"dtype": "DT_INT32", "tensorShape": {"dim": [{"size": "2"}]}}}, "dtype": {"type": "DT_INT32"}}}, {"name": "xception_65/middle_flow/block1/unit_14/xception_module/separable_conv1_depthwise/depthwise/BatchToSpaceND/crops", "op": "Const", "attr": {"dtype": {"type": "DT_INT32"}, "value": {"tensor": {"dtype": "DT_INT32", "tensorShape": {"dim": [{"size": "2"}, {"size": "2"}]}}}}}, {"name": "xception_65/middle_flow/block1/unit_14/xception_module/separable_conv2_depthwise/depthwise/SpaceToBatchND/block_shape", "op": "Const", "attr": {"dtype": {"type": "DT_INT32"}, "value": {"tensor": {"dtype": "DT_INT32", "tensorShape": {"dim": [{"size": "2"}]}}}}}, {"name": "xception_65/middle_flow/block1/unit_14/xception_module/separable_conv2_depthwise/depthwise/SpaceToBatchND/paddings", "op": "Const", "attr": {"value": {"tensor": {"dtype": "DT_INT32", "tensorShape": {"dim": [{"size": "2"}, {"size": "2"}]}}}, "dtype": {"type": "DT_INT32"}}}, {"name": "xception_65/middle_flow/block1/unit_14/xception_module/separable_conv2_depthwise/depthwise_weights", "op": "Const", "attr": {"dtype": {"type": "DT_FLOAT"}, "value": {"tensor": {"dtype": "DT_FLOAT", "tensorShape": {"dim": [{"size": "3"}, {"size": "3"}, {"size": "728"}, {"size": "1"}]}}}}}, {"name": "xception_65/middle_flow/block1/unit_14/xception_module/separable_conv2_depthwise/depthwise/BatchToSpaceND/block_shape", "op": "Const", "attr": {"value": {"tensor": {"dtype": "DT_INT32", "tensorShape": {"dim": [{"size": "2"}]}}}, "dtype": {"type": "DT_INT32"}}}, {"name": "xception_65/middle_flow/block1/unit_14/xception_module/separable_conv2_depthwise/depthwise/BatchToSpaceND/crops", "op": "Const", "attr": {"dtype": {"type": "DT_INT32"}, "value": {"tensor": {"dtype": "DT_INT32", "tensorShape": {"dim": [{"size": "2"}, {"size": "2"}]}}}}}, {"name": "xception_65/middle_flow/block1/unit_14/xception_module/separable_conv3_depthwise/depthwise/SpaceToBatchND/block_shape", "op": "Const", "attr": {"dtype": {"type": "DT_INT32"}, "value": {"tensor": {"dtype": "DT_INT32", "tensorShape": {"dim": [{"size": "2"}]}}}}}, {"name": "xception_65/middle_flow/block1/unit_14/xception_module/separable_conv3_depthwise/depthwise/SpaceToBatchND/paddings", "op": "Const", "attr": {"value": {"tensor": {"dtype": "DT_INT32", "tensorShape": {"dim": [{"size": "2"}, {"size": "2"}]}}}, "dtype": {"type": "DT_INT32"}}}, {"name": "xception_65/middle_flow/block1/unit_14/xception_module/separable_conv3_depthwise/depthwise_weights", "op": "Const", "attr": {"dtype": {"type": "DT_FLOAT"}, "value": {"tensor": {"dtype": "DT_FLOAT", "tensorShape": {"dim": [{"size": "3"}, {"size": "3"}, {"size": "728"}, {"size": "1"}]}}}}}, {"name": "xception_65/middle_flow/block1/unit_14/xception_module/separable_conv3_depthwise/depthwise/BatchToSpaceND/block_shape", "op": "Const", "attr": {"value": {"tensor": {"dtype": "DT_INT32", "tensorShape": {"dim": [{"size": "2"}]}}}, "dtype": {"type": "DT_INT32"}}}, {"name": "xception_65/middle_flow/block1/unit_14/xception_module/separable_conv3_depthwise/depthwise/BatchToSpaceND/crops", "op": "Const", "attr": {"value": {"tensor": {"dtype": "DT_INT32", "tensorShape": {"dim": [{"size": "2"}, {"size": "2"}]}}}, "dtype": {"type": "DT_INT32"}}}, {"name": "xception_65/middle_flow/block1/unit_13/xception_module/separable_conv1_depthwise/depthwise/SpaceToBatchND/block_shape", "op": "Const", "attr": {"value": {"tensor": {"dtype": "DT_INT32", "tensorShape": {"dim": [{"size": "2"}]}}}, "dtype": {"type": "DT_INT32"}}}, {"name": "xception_65/middle_flow/block1/unit_13/xception_module/separable_conv1_depthwise/depthwise/SpaceToBatchND/paddings", "op": "Const", "attr": {"value": {"tensor": {"dtype": "DT_INT32", "tensorShape": {"dim": [{"size": "2"}, {"size": "2"}]}}}, "dtype": {"type": "DT_INT32"}}}, {"name": "xception_65/middle_flow/block1/unit_13/xception_module/separable_conv1_depthwise/depthwise_weights", "op": "Const", "attr": {"dtype": {"type": "DT_FLOAT"}, "value": {"tensor": {"dtype": "DT_FLOAT", "tensorShape": {"dim": [{"size": "3"}, {"size": "3"}, {"size": "728"}, {"size": "1"}]}}}}}, {"name": "xception_65/middle_flow/block1/unit_13/xception_module/separable_conv1_depthwise/depthwise/BatchToSpaceND/block_shape", "op": "Const", "attr": {"value": {"tensor": {"dtype": "DT_INT32", "tensorShape": {"dim": [{"size": "2"}]}}}, "dtype": {"type": "DT_INT32"}}}, {"name": "xception_65/middle_flow/block1/unit_13/xception_module/separable_conv1_depthwise/depthwise/BatchToSpaceND/crops", "op": "Const", "attr": {"dtype": {"type": "DT_INT32"}, "value": {"tensor": {"dtype": "DT_INT32", "tensorShape": {"dim": [{"size": "2"}, {"size": "2"}]}}}}}, {"name": "xception_65/middle_flow/block1/unit_13/xception_module/separable_conv2_depthwise/depthwise/SpaceToBatchND/block_shape", "op": "Const", "attr": {"value": {"tensor": {"dtype": "DT_INT32", "tensorShape": {"dim": [{"size": "2"}]}}}, "dtype": {"type": "DT_INT32"}}}, {"name": "xception_65/middle_flow/block1/unit_13/xception_module/separable_conv2_depthwise/depthwise/SpaceToBatchND/paddings", "op": "Const", "attr": {"dtype": {"type": "DT_INT32"}, "value": {"tensor": {"dtype": "DT_INT32", "tensorShape": {"dim": [{"size": "2"}, {"size": "2"}]}}}}}, {"name": "xception_65/middle_flow/block1/unit_13/xception_module/separable_conv2_depthwise/depthwise_weights", "op": "Const", "attr": {"value": {"tensor": {"dtype": "DT_FLOAT", "tensorShape": {"dim": [{"size": "3"}, {"size": "3"}, {"size": "728"}, {"size": "1"}]}}}, "dtype": {"type": "DT_FLOAT"}}}, {"name": "xception_65/middle_flow/block1/unit_13/xception_module/separable_conv2_depthwise/depthwise/BatchToSpaceND/block_shape", "op": "Const", "attr": {"dtype": {"type": "DT_INT32"}, "value": {"tensor": {"dtype": "DT_INT32", "tensorShape": {"dim": [{"size": "2"}]}}}}}, {"name": "xception_65/middle_flow/block1/unit_13/xception_module/separable_conv2_depthwise/depthwise/BatchToSpaceND/crops", "op": "Const", "attr": {"value": {"tensor": {"dtype": "DT_INT32", "tensorShape": {"dim": [{"size": "2"}, {"size": "2"}]}}}, "dtype": {"type": "DT_INT32"}}}, {"name": "xception_65/middle_flow/block1/unit_13/xception_module/separable_conv3_depthwise/depthwise/SpaceToBatchND/block_shape", "op": "Const", "attr": {"value": {"tensor": {"dtype": "DT_INT32", "tensorShape": {"dim": [{"size": "2"}]}}}, "dtype": {"type": "DT_INT32"}}}, {"name": "xception_65/middle_flow/block1/unit_13/xception_module/separable_conv3_depthwise/depthwise/SpaceToBatchND/paddings", "op": "Const", "attr": {"dtype": {"type": "DT_INT32"}, "value": {"tensor": {"dtype": "DT_INT32", "tensorShape": {"dim": [{"size": "2"}, {"size": "2"}]}}}}}, {"name": "xception_65/middle_flow/block1/unit_13/xception_module/separable_conv3_depthwise/depthwise_weights", "op": "Const", "attr": {"dtype": {"type": "DT_FLOAT"}, "value": {"tensor": {"dtype": "DT_FLOAT", "tensorShape": {"dim": [{"size": "3"}, {"size": "3"}, {"size": "728"}, {"size": "1"}]}}}}}, {"name": "xception_65/middle_flow/block1/unit_13/xception_module/separable_conv3_depthwise/depthwise/BatchToSpaceND/block_shape", "op": "Const", "attr": {"dtype": {"type": "DT_INT32"}, "value": {"tensor": {"dtype": "DT_INT32", "tensorShape": {"dim": [{"size": "2"}]}}}}}, {"name": "xception_65/middle_flow/block1/unit_13/xception_module/separable_conv3_depthwise/depthwise/BatchToSpaceND/crops", "op": "Const", "attr": {"dtype": {"type": "DT_INT32"}, "value": {"tensor": {"dtype": "DT_INT32", "tensorShape": {"dim": [{"size": "2"}, {"size": "2"}]}}}}}, {"name": "xception_65/middle_flow/block1/unit_12/xception_module/separable_conv1_depthwise/depthwise/SpaceToBatchND/block_shape", "op": "Const", "attr": {"value": {"tensor": {"dtype": "DT_INT32", "tensorShape": {"dim": [{"size": "2"}]}}}, "dtype": {"type": "DT_INT32"}}}, {"name": "xception_65/middle_flow/block1/unit_12/xception_module/separable_conv1_depthwise/depthwise/SpaceToBatchND/paddings", "op": "Const", "attr": {"value": {"tensor": {"dtype": "DT_INT32", "tensorShape": {"dim": [{"size": "2"}, {"size": "2"}]}}}, "dtype": {"type": "DT_INT32"}}}, {"name": "xception_65/middle_flow/block1/unit_12/xception_module/separable_conv1_depthwise/depthwise_weights", "op": "Const", "attr": {"value": {"tensor": {"dtype": "DT_FLOAT", "tensorShape": {"dim": [{"size": "3"}, {"size": "3"}, {"size": "728"}, {"size": "1"}]}}}, "dtype": {"type": "DT_FLOAT"}}}, {"name": "xception_65/middle_flow/block1/unit_12/xception_module/separable_conv1_depthwise/depthwise/BatchToSpaceND/block_shape", "op": "Const", "attr": {"dtype": {"type": "DT_INT32"}, "value": {"tensor": {"dtype": "DT_INT32", "tensorShape": {"dim": [{"size": "2"}]}}}}}, {"name": "xception_65/middle_flow/block1/unit_12/xception_module/separable_conv1_depthwise/depthwise/BatchToSpaceND/crops", "op": "Const", "attr": {"dtype": {"type": "DT_INT32"}, "value": {"tensor": {"dtype": "DT_INT32", "tensorShape": {"dim": [{"size": "2"}, {"size": "2"}]}}}}}, {"name": "xception_65/middle_flow/block1/unit_12/xception_module/separable_conv2_depthwise/depthwise/SpaceToBatchND/block_shape", "op": "Const", "attr": {"value": {"tensor": {"dtype": "DT_INT32", "tensorShape": {"dim": [{"size": "2"}]}}}, "dtype": {"type": "DT_INT32"}}}, {"name": "xception_65/middle_flow/block1/unit_12/xception_module/separable_conv2_depthwise/depthwise/SpaceToBatchND/paddings", "op": "Const", "attr": {"dtype": {"type": "DT_INT32"}, "value": {"tensor": {"dtype": "DT_INT32", "tensorShape": {"dim": [{"size": "2"}, {"size": "2"}]}}}}}, {"name": "xception_65/middle_flow/block1/unit_12/xception_module/separable_conv2_depthwise/depthwise_weights", "op": "Const", "attr": {"dtype": {"type": "DT_FLOAT"}, "value": {"tensor": {"dtype": "DT_FLOAT", "tensorShape": {"dim": [{"size": "3"}, {"size": "3"}, {"size": "728"}, {"size": "1"}]}}}}}, {"name": "xception_65/middle_flow/block1/unit_12/xception_module/separable_conv2_depthwise/depthwise/BatchToSpaceND/block_shape", "op": "Const", "attr": {"dtype": {"type": "DT_INT32"}, "value": {"tensor": {"dtype": "DT_INT32", "tensorShape": {"dim": [{"size": "2"}]}}}}}, {"name": "xception_65/middle_flow/block1/unit_12/xception_module/separable_conv2_depthwise/depthwise/BatchToSpaceND/crops", "op": "Const", "attr": {"dtype": {"type": "DT_INT32"}, "value": {"tensor": {"dtype": "DT_INT32", "tensorShape": {"dim": [{"size": "2"}, {"size": "2"}]}}}}}, {"name": "xception_65/middle_flow/block1/unit_12/xception_module/separable_conv3_depthwise/depthwise/SpaceToBatchND/block_shape", "op": "Const", "attr": {"dtype": {"type": "DT_INT32"}, "value": {"tensor": {"dtype": "DT_INT32", "tensorShape": {"dim": [{"size": "2"}]}}}}}, {"name": "xception_65/middle_flow/block1/unit_12/xception_module/separable_conv3_depthwise/depthwise/SpaceToBatchND/paddings", "op": "Const", "attr": {"dtype": {"type": "DT_INT32"}, "value": {"tensor": {"dtype": "DT_INT32", "tensorShape": {"dim": [{"size": "2"}, {"size": "2"}]}}}}}, {"name": "xception_65/middle_flow/block1/unit_12/xception_module/separable_conv3_depthwise/depthwise_weights", "op": "Const", "attr": {"value": {"tensor": {"dtype": "DT_FLOAT", "tensorShape": {"dim": [{"size": "3"}, {"size": "3"}, {"size": "728"}, {"size": "1"}]}}}, "dtype": {"type": "DT_FLOAT"}}}, {"name": "xception_65/middle_flow/block1/unit_12/xception_module/separable_conv3_depthwise/depthwise/BatchToSpaceND/block_shape", "op": "Const", "attr": {"value": {"tensor": {"dtype": "DT_INT32", "tensorShape": {"dim": [{"size": "2"}]}}}, "dtype": {"type": "DT_INT32"}}}, {"name": "xception_65/middle_flow/block1/unit_12/xception_module/separable_conv3_depthwise/depthwise/BatchToSpaceND/crops", "op": "Const", "attr": {"dtype": {"type": "DT_INT32"}, "value": {"tensor": {"dtype": "DT_INT32", "tensorShape": {"dim": [{"size": "2"}, {"size": "2"}]}}}}}, {"name": "xception_65/middle_flow/block1/unit_11/xception_module/separable_conv1_depthwise/depthwise/SpaceToBatchND/block_shape", "op": "Const", "attr": {"dtype": {"type": "DT_INT32"}, "value": {"tensor": {"dtype": "DT_INT32", "tensorShape": {"dim": [{"size": "2"}]}}}}}, {"name": "xception_65/middle_flow/block1/unit_11/xception_module/separable_conv1_depthwise/depthwise/SpaceToBatchND/paddings", "op": "Const", "attr": {"value": {"tensor": {"dtype": "DT_INT32", "tensorShape": {"dim": [{"size": "2"}, {"size": "2"}]}}}, "dtype": {"type": "DT_INT32"}}}, {"name": "xception_65/middle_flow/block1/unit_11/xception_module/separable_conv1_depthwise/depthwise_weights", "op": "Const", "attr": {"dtype": {"type": "DT_FLOAT"}, "value": {"tensor": {"dtype": "DT_FLOAT", "tensorShape": {"dim": [{"size": "3"}, {"size": "3"}, {"size": "728"}, {"size": "1"}]}}}}}, {"name": "xception_65/middle_flow/block1/unit_11/xception_module/separable_conv1_depthwise/depthwise/BatchToSpaceND/block_shape", "op": "Const", "attr": {"dtype": {"type": "DT_INT32"}, "value": {"tensor": {"dtype": "DT_INT32", "tensorShape": {"dim": [{"size": "2"}]}}}}}, {"name": "xception_65/middle_flow/block1/unit_11/xception_module/separable_conv1_depthwise/depthwise/BatchToSpaceND/crops", "op": "Const", "attr": {"dtype": {"type": "DT_INT32"}, "value": {"tensor": {"dtype": "DT_INT32", "tensorShape": {"dim": [{"size": "2"}, {"size": "2"}]}}}}}, {"name": "xception_65/middle_flow/block1/unit_11/xception_module/separable_conv2_depthwise/depthwise/SpaceToBatchND/block_shape", "op": "Const", "attr": {"dtype": {"type": "DT_INT32"}, "value": {"tensor": {"dtype": "DT_INT32", "tensorShape": {"dim": [{"size": "2"}]}}}}}, {"name": "xception_65/middle_flow/block1/unit_11/xception_module/separable_conv2_depthwise/depthwise/SpaceToBatchND/paddings", "op": "Const", "attr": {"dtype": {"type": "DT_INT32"}, "value": {"tensor": {"dtype": "DT_INT32", "tensorShape": {"dim": [{"size": "2"}, {"size": "2"}]}}}}}, {"name": "xception_65/middle_flow/block1/unit_11/xception_module/separable_conv2_depthwise/depthwise_weights", "op": "Const", "attr": {"dtype": {"type": "DT_FLOAT"}, "value": {"tensor": {"dtype": "DT_FLOAT", "tensorShape": {"dim": [{"size": "3"}, {"size": "3"}, {"size": "728"}, {"size": "1"}]}}}}}, {"name": "xception_65/middle_flow/block1/unit_11/xception_module/separable_conv2_depthwise/depthwise/BatchToSpaceND/block_shape", "op": "Const", "attr": {"dtype": {"type": "DT_INT32"}, "value": {"tensor": {"dtype": "DT_INT32", "tensorShape": {"dim": [{"size": "2"}]}}}}}, {"name": "xception_65/middle_flow/block1/unit_11/xception_module/separable_conv2_depthwise/depthwise/BatchToSpaceND/crops", "op": "Const", "attr": {"dtype": {"type": "DT_INT32"}, "value": {"tensor": {"dtype": "DT_INT32", "tensorShape": {"dim": [{"size": "2"}, {"size": "2"}]}}}}}, {"name": "xception_65/middle_flow/block1/unit_11/xception_module/separable_conv3_depthwise/depthwise/SpaceToBatchND/block_shape", "op": "Const", "attr": {"value": {"tensor": {"dtype": "DT_INT32", "tensorShape": {"dim": [{"size": "2"}]}}}, "dtype": {"type": "DT_INT32"}}}, {"name": "xception_65/middle_flow/block1/unit_11/xception_module/separable_conv3_depthwise/depthwise/SpaceToBatchND/paddings", "op": "Const", "attr": {"value": {"tensor": {"dtype": "DT_INT32", "tensorShape": {"dim": [{"size": "2"}, {"size": "2"}]}}}, "dtype": {"type": "DT_INT32"}}}, {"name": "xception_65/middle_flow/block1/unit_11/xception_module/separable_conv3_depthwise/depthwise_weights", "op": "Const", "attr": {"value": {"tensor": {"dtype": "DT_FLOAT", "tensorShape": {"dim": [{"size": "3"}, {"size": "3"}, {"size": "728"}, {"size": "1"}]}}}, "dtype": {"type": "DT_FLOAT"}}}, {"name": "xception_65/middle_flow/block1/unit_11/xception_module/separable_conv3_depthwise/depthwise/BatchToSpaceND/block_shape", "op": "Const", "attr": {"value": {"tensor": {"dtype": "DT_INT32", "tensorShape": {"dim": [{"size": "2"}]}}}, "dtype": {"type": "DT_INT32"}}}, {"name": "xception_65/middle_flow/block1/unit_11/xception_module/separable_conv3_depthwise/depthwise/BatchToSpaceND/crops", "op": "Const", "attr": {"dtype": {"type": "DT_INT32"}, "value": {"tensor": {"dtype": "DT_INT32", "tensorShape": {"dim": [{"size": "2"}, {"size": "2"}]}}}}}, {"name": "xception_65/middle_flow/block1/unit_10/xception_module/separable_conv1_depthwise/depthwise/SpaceToBatchND/block_shape", "op": "Const", "attr": {"dtype": {"type": "DT_INT32"}, "value": {"tensor": {"dtype": "DT_INT32", "tensorShape": {"dim": [{"size": "2"}]}}}}}, {"name": "xception_65/middle_flow/block1/unit_10/xception_module/separable_conv1_depthwise/depthwise/SpaceToBatchND/paddings", "op": "Const", "attr": {"value": {"tensor": {"dtype": "DT_INT32", "tensorShape": {"dim": [{"size": "2"}, {"size": "2"}]}}}, "dtype": {"type": "DT_INT32"}}}, {"name": "xception_65/middle_flow/block1/unit_10/xception_module/separable_conv1_depthwise/depthwise_weights", "op": "Const", "attr": {"value": {"tensor": {"dtype": "DT_FLOAT", "tensorShape": {"dim": [{"size": "3"}, {"size": "3"}, {"size": "728"}, {"size": "1"}]}}}, "dtype": {"type": "DT_FLOAT"}}}, {"name": "xception_65/middle_flow/block1/unit_10/xception_module/separable_conv1_depthwise/depthwise/BatchToSpaceND/block_shape", "op": "Const", "attr": {"dtype": {"type": "DT_INT32"}, "value": {"tensor": {"dtype": "DT_INT32", "tensorShape": {"dim": [{"size": "2"}]}}}}}, {"name": "xception_65/middle_flow/block1/unit_10/xception_module/separable_conv1_depthwise/depthwise/BatchToSpaceND/crops", "op": "Const", "attr": {"value": {"tensor": {"dtype": "DT_INT32", "tensorShape": {"dim": [{"size": "2"}, {"size": "2"}]}}}, "dtype": {"type": "DT_INT32"}}}, {"name": "xception_65/middle_flow/block1/unit_10/xception_module/separable_conv2_depthwise/depthwise/SpaceToBatchND/block_shape", "op": "Const", "attr": {"value": {"tensor": {"dtype": "DT_INT32", "tensorShape": {"dim": [{"size": "2"}]}}}, "dtype": {"type": "DT_INT32"}}}, {"name": "xception_65/middle_flow/block1/unit_10/xception_module/separable_conv2_depthwise/depthwise/SpaceToBatchND/paddings", "op": "Const", "attr": {"value": {"tensor": {"dtype": "DT_INT32", "tensorShape": {"dim": [{"size": "2"}, {"size": "2"}]}}}, "dtype": {"type": "DT_INT32"}}}, {"name": "xception_65/middle_flow/block1/unit_10/xception_module/separable_conv2_depthwise/depthwise_weights", "op": "Const", "attr": {"dtype": {"type": "DT_FLOAT"}, "value": {"tensor": {"dtype": "DT_FLOAT", "tensorShape": {"dim": [{"size": "3"}, {"size": "3"}, {"size": "728"}, {"size": "1"}]}}}}}, {"name": "xception_65/middle_flow/block1/unit_10/xception_module/separable_conv2_depthwise/depthwise/BatchToSpaceND/block_shape", "op": "Const", "attr": {"value": {"tensor": {"dtype": "DT_INT32", "tensorShape": {"dim": [{"size": "2"}]}}}, "dtype": {"type": "DT_INT32"}}}, {"name": "xception_65/middle_flow/block1/unit_10/xception_module/separable_conv2_depthwise/depthwise/BatchToSpaceND/crops", "op": "Const", "attr": {"dtype": {"type": "DT_INT32"}, "value": {"tensor": {"dtype": "DT_INT32", "tensorShape": {"dim": [{"size": "2"}, {"size": "2"}]}}}}}, {"name": "xception_65/middle_flow/block1/unit_10/xception_module/separable_conv3_depthwise/depthwise/SpaceToBatchND/block_shape", "op": "Const", "attr": {"dtype": {"type": "DT_INT32"}, "value": {"tensor": {"dtype": "DT_INT32", "tensorShape": {"dim": [{"size": "2"}]}}}}}, {"name": "xception_65/middle_flow/block1/unit_10/xception_module/separable_conv3_depthwise/depthwise/SpaceToBatchND/paddings", "op": "Const", "attr": {"value": {"tensor": {"dtype": "DT_INT32", "tensorShape": {"dim": [{"size": "2"}, {"size": "2"}]}}}, "dtype": {"type": "DT_INT32"}}}, {"name": "xception_65/middle_flow/block1/unit_10/xception_module/separable_conv3_depthwise/depthwise_weights", "op": "Const", "attr": {"value": {"tensor": {"dtype": "DT_FLOAT", "tensorShape": {"dim": [{"size": "3"}, {"size": "3"}, {"size": "728"}, {"size": "1"}]}}}, "dtype": {"type": "DT_FLOAT"}}}, {"name": "xception_65/middle_flow/block1/unit_10/xception_module/separable_conv3_depthwise/depthwise/BatchToSpaceND/block_shape", "op": "Const", "attr": {"value": {"tensor": {"dtype": "DT_INT32", "tensorShape": {"dim": [{"size": "2"}]}}}, "dtype": {"type": "DT_INT32"}}}, {"name": "xception_65/middle_flow/block1/unit_10/xception_module/separable_conv3_depthwise/depthwise/BatchToSpaceND/crops", "op": "Const", "attr": {"value": {"tensor": {"dtype": "DT_INT32", "tensorShape": {"dim": [{"size": "2"}, {"size": "2"}]}}}, "dtype": {"type": "DT_INT32"}}}, {"name": "xception_65/middle_flow/block1/unit_9/xception_module/separable_conv1_depthwise/depthwise/SpaceToBatchND/block_shape", "op": "Const", "attr": {"dtype": {"type": "DT_INT32"}, "value": {"tensor": {"dtype": "DT_INT32", "tensorShape": {"dim": [{"size": "2"}]}}}}}, {"name": "xception_65/middle_flow/block1/unit_9/xception_module/separable_conv1_depthwise/depthwise/SpaceToBatchND/paddings", "op": "Const", "attr": {"value": {"tensor": {"dtype": "DT_INT32", "tensorShape": {"dim": [{"size": "2"}, {"size": "2"}]}}}, "dtype": {"type": "DT_INT32"}}}, {"name": "xception_65/middle_flow/block1/unit_9/xception_module/separable_conv1_depthwise/depthwise_weights", "op": "Const", "attr": {"value": {"tensor": {"dtype": "DT_FLOAT", "tensorShape": {"dim": [{"size": "3"}, {"size": "3"}, {"size": "728"}, {"size": "1"}]}}}, "dtype": {"type": "DT_FLOAT"}}}, {"name": "xception_65/middle_flow/block1/unit_9/xception_module/separable_conv1_depthwise/depthwise/BatchToSpaceND/block_shape", "op": "Const", "attr": {"dtype": {"type": "DT_INT32"}, "value": {"tensor": {"dtype": "DT_INT32", "tensorShape": {"dim": [{"size": "2"}]}}}}}, {"name": "xception_65/middle_flow/block1/unit_9/xception_module/separable_conv1_depthwise/depthwise/BatchToSpaceND/crops", "op": "Const", "attr": {"dtype": {"type": "DT_INT32"}, "value": {"tensor": {"dtype": "DT_INT32", "tensorShape": {"dim": [{"size": "2"}, {"size": "2"}]}}}}}, {"name": "xception_65/middle_flow/block1/unit_9/xception_module/separable_conv2_depthwise/depthwise/SpaceToBatchND/block_shape", "op": "Const", "attr": {"dtype": {"type": "DT_INT32"}, "value": {"tensor": {"dtype": "DT_INT32", "tensorShape": {"dim": [{"size": "2"}]}}}}}, {"name": "xception_65/middle_flow/block1/unit_9/xception_module/separable_conv2_depthwise/depthwise/SpaceToBatchND/paddings", "op": "Const", "attr": {"value": {"tensor": {"dtype": "DT_INT32", "tensorShape": {"dim": [{"size": "2"}, {"size": "2"}]}}}, "dtype": {"type": "DT_INT32"}}}, {"name": "xception_65/middle_flow/block1/unit_9/xception_module/separable_conv2_depthwise/depthwise_weights", "op": "Const", "attr": {"value": {"tensor": {"dtype": "DT_FLOAT", "tensorShape": {"dim": [{"size": "3"}, {"size": "3"}, {"size": "728"}, {"size": "1"}]}}}, "dtype": {"type": "DT_FLOAT"}}}, {"name": "xception_65/middle_flow/block1/unit_9/xception_module/separable_conv2_depthwise/depthwise/BatchToSpaceND/block_shape", "op": "Const", "attr": {"dtype": {"type": "DT_INT32"}, "value": {"tensor": {"dtype": "DT_INT32", "tensorShape": {"dim": [{"size": "2"}]}}}}}, {"name": "xception_65/middle_flow/block1/unit_9/xception_module/separable_conv2_depthwise/depthwise/BatchToSpaceND/crops", "op": "Const", "attr": {"dtype": {"type": "DT_INT32"}, "value": {"tensor": {"dtype": "DT_INT32", "tensorShape": {"dim": [{"size": "2"}, {"size": "2"}]}}}}}, {"name": "xception_65/middle_flow/block1/unit_9/xception_module/separable_conv3_depthwise/depthwise/SpaceToBatchND/block_shape", "op": "Const", "attr": {"value": {"tensor": {"dtype": "DT_INT32", "tensorShape": {"dim": [{"size": "2"}]}}}, "dtype": {"type": "DT_INT32"}}}, {"name": "xception_65/middle_flow/block1/unit_9/xception_module/separable_conv3_depthwise/depthwise/SpaceToBatchND/paddings", "op": "Const", "attr": {"dtype": {"type": "DT_INT32"}, "value": {"tensor": {"dtype": "DT_INT32", "tensorShape": {"dim": [{"size": "2"}, {"size": "2"}]}}}}}, {"name": "xception_65/middle_flow/block1/unit_9/xception_module/separable_conv3_depthwise/depthwise_weights", "op": "Const", "attr": {"value": {"tensor": {"dtype": "DT_FLOAT", "tensorShape": {"dim": [{"size": "3"}, {"size": "3"}, {"size": "728"}, {"size": "1"}]}}}, "dtype": {"type": "DT_FLOAT"}}}, {"name": "xception_65/middle_flow/block1/unit_9/xception_module/separable_conv3_depthwise/depthwise/BatchToSpaceND/block_shape", "op": "Const", "attr": {"dtype": {"type": "DT_INT32"}, "value": {"tensor": {"dtype": "DT_INT32", "tensorShape": {"dim": [{"size": "2"}]}}}}}, {"name": "xception_65/middle_flow/block1/unit_9/xception_module/separable_conv3_depthwise/depthwise/BatchToSpaceND/crops", "op": "Const", "attr": {"value": {"tensor": {"dtype": "DT_INT32", "tensorShape": {"dim": [{"size": "2"}, {"size": "2"}]}}}, "dtype": {"type": "DT_INT32"}}}, {"name": "xception_65/middle_flow/block1/unit_8/xception_module/separable_conv1_depthwise/depthwise/SpaceToBatchND/block_shape", "op": "Const", "attr": {"value": {"tensor": {"dtype": "DT_INT32", "tensorShape": {"dim": [{"size": "2"}]}}}, "dtype": {"type": "DT_INT32"}}}, {"name": "xception_65/middle_flow/block1/unit_8/xception_module/separable_conv1_depthwise/depthwise/SpaceToBatchND/paddings", "op": "Const", "attr": {"value": {"tensor": {"dtype": "DT_INT32", "tensorShape": {"dim": [{"size": "2"}, {"size": "2"}]}}}, "dtype": {"type": "DT_INT32"}}}, {"name": "xception_65/middle_flow/block1/unit_8/xception_module/separable_conv1_depthwise/depthwise_weights", "op": "Const", "attr": {"value": {"tensor": {"dtype": "DT_FLOAT", "tensorShape": {"dim": [{"size": "3"}, {"size": "3"}, {"size": "728"}, {"size": "1"}]}}}, "dtype": {"type": "DT_FLOAT"}}}, {"name": "xception_65/middle_flow/block1/unit_8/xception_module/separable_conv1_depthwise/depthwise/BatchToSpaceND/block_shape", "op": "Const", "attr": {"value": {"tensor": {"dtype": "DT_INT32", "tensorShape": {"dim": [{"size": "2"}]}}}, "dtype": {"type": "DT_INT32"}}}, {"name": "xception_65/middle_flow/block1/unit_8/xception_module/separable_conv1_depthwise/depthwise/BatchToSpaceND/crops", "op": "Const", "attr": {"value": {"tensor": {"dtype": "DT_INT32", "tensorShape": {"dim": [{"size": "2"}, {"size": "2"}]}}}, "dtype": {"type": "DT_INT32"}}}, {"name": "xception_65/middle_flow/block1/unit_8/xception_module/separable_conv2_depthwise/depthwise/SpaceToBatchND/block_shape", "op": "Const", "attr": {"dtype": {"type": "DT_INT32"}, "value": {"tensor": {"dtype": "DT_INT32", "tensorShape": {"dim": [{"size": "2"}]}}}}}, {"name": "xception_65/middle_flow/block1/unit_8/xception_module/separable_conv2_depthwise/depthwise/SpaceToBatchND/paddings", "op": "Const", "attr": {"value": {"tensor": {"dtype": "DT_INT32", "tensorShape": {"dim": [{"size": "2"}, {"size": "2"}]}}}, "dtype": {"type": "DT_INT32"}}}, {"name": "xception_65/middle_flow/block1/unit_8/xception_module/separable_conv2_depthwise/depthwise_weights", "op": "Const", "attr": {"dtype": {"type": "DT_FLOAT"}, "value": {"tensor": {"dtype": "DT_FLOAT", "tensorShape": {"dim": [{"size": "3"}, {"size": "3"}, {"size": "728"}, {"size": "1"}]}}}}}, {"name": "xception_65/middle_flow/block1/unit_8/xception_module/separable_conv2_depthwise/depthwise/BatchToSpaceND/block_shape", "op": "Const", "attr": {"dtype": {"type": "DT_INT32"}, "value": {"tensor": {"dtype": "DT_INT32", "tensorShape": {"dim": [{"size": "2"}]}}}}}, {"name": "xception_65/middle_flow/block1/unit_8/xception_module/separable_conv2_depthwise/depthwise/BatchToSpaceND/crops", "op": "Const", "attr": {"value": {"tensor": {"dtype": "DT_INT32", "tensorShape": {"dim": [{"size": "2"}, {"size": "2"}]}}}, "dtype": {"type": "DT_INT32"}}}, {"name": "xception_65/middle_flow/block1/unit_8/xception_module/separable_conv3_depthwise/depthwise/SpaceToBatchND/block_shape", "op": "Const", "attr": {"value": {"tensor": {"dtype": "DT_INT32", "tensorShape": {"dim": [{"size": "2"}]}}}, "dtype": {"type": "DT_INT32"}}}, {"name": "xception_65/middle_flow/block1/unit_8/xception_module/separable_conv3_depthwise/depthwise/SpaceToBatchND/paddings", "op": "Const", "attr": {"value": {"tensor": {"dtype": "DT_INT32", "tensorShape": {"dim": [{"size": "2"}, {"size": "2"}]}}}, "dtype": {"type": "DT_INT32"}}}, {"name": "xception_65/middle_flow/block1/unit_8/xception_module/separable_conv3_depthwise/depthwise_weights", "op": "Const", "attr": {"value": {"tensor": {"dtype": "DT_FLOAT", "tensorShape": {"dim": [{"size": "3"}, {"size": "3"}, {"size": "728"}, {"size": "1"}]}}}, "dtype": {"type": "DT_FLOAT"}}}, {"name": "xception_65/middle_flow/block1/unit_8/xception_module/separable_conv3_depthwise/depthwise/BatchToSpaceND/block_shape", "op": "Const", "attr": {"value": {"tensor": {"dtype": "DT_INT32", "tensorShape": {"dim": [{"size": "2"}]}}}, "dtype": {"type": "DT_INT32"}}}, {"name": "xception_65/middle_flow/block1/unit_8/xception_module/separable_conv3_depthwise/depthwise/BatchToSpaceND/crops", "op": "Const", "attr": {"value": {"tensor": {"dtype": "DT_INT32", "tensorShape": {"dim": [{"size": "2"}, {"size": "2"}]}}}, "dtype": {"type": "DT_INT32"}}}, {"name": "xception_65/middle_flow/block1/unit_7/xception_module/separable_conv1_depthwise/depthwise/SpaceToBatchND/block_shape", "op": "Const", "attr": {"value": {"tensor": {"dtype": "DT_INT32", "tensorShape": {"dim": [{"size": "2"}]}}}, "dtype": {"type": "DT_INT32"}}}, {"name": "xception_65/middle_flow/block1/unit_7/xception_module/separable_conv1_depthwise/depthwise/SpaceToBatchND/paddings", "op": "Const", "attr": {"value": {"tensor": {"dtype": "DT_INT32", "tensorShape": {"dim": [{"size": "2"}, {"size": "2"}]}}}, "dtype": {"type": "DT_INT32"}}}, {"name": "xception_65/middle_flow/block1/unit_7/xception_module/separable_conv1_depthwise/depthwise_weights", "op": "Const", "attr": {"value": {"tensor": {"dtype": "DT_FLOAT", "tensorShape": {"dim": [{"size": "3"}, {"size": "3"}, {"size": "728"}, {"size": "1"}]}}}, "dtype": {"type": "DT_FLOAT"}}}, {"name": "xception_65/middle_flow/block1/unit_7/xception_module/separable_conv1_depthwise/depthwise/BatchToSpaceND/block_shape", "op": "Const", "attr": {"value": {"tensor": {"dtype": "DT_INT32", "tensorShape": {"dim": [{"size": "2"}]}}}, "dtype": {"type": "DT_INT32"}}}, {"name": "xception_65/middle_flow/block1/unit_7/xception_module/separable_conv1_depthwise/depthwise/BatchToSpaceND/crops", "op": "Const", "attr": {"dtype": {"type": "DT_INT32"}, "value": {"tensor": {"dtype": "DT_INT32", "tensorShape": {"dim": [{"size": "2"}, {"size": "2"}]}}}}}, {"name": "xception_65/middle_flow/block1/unit_7/xception_module/separable_conv2_depthwise/depthwise/SpaceToBatchND/block_shape", "op": "Const", "attr": {"dtype": {"type": "DT_INT32"}, "value": {"tensor": {"dtype": "DT_INT32", "tensorShape": {"dim": [{"size": "2"}]}}}}}, {"name": "xception_65/middle_flow/block1/unit_7/xception_module/separable_conv2_depthwise/depthwise/SpaceToBatchND/paddings", "op": "Const", "attr": {"dtype": {"type": "DT_INT32"}, "value": {"tensor": {"dtype": "DT_INT32", "tensorShape": {"dim": [{"size": "2"}, {"size": "2"}]}}}}}, {"name": "xception_65/middle_flow/block1/unit_7/xception_module/separable_conv2_depthwise/depthwise_weights", "op": "Const", "attr": {"value": {"tensor": {"dtype": "DT_FLOAT", "tensorShape": {"dim": [{"size": "3"}, {"size": "3"}, {"size": "728"}, {"size": "1"}]}}}, "dtype": {"type": "DT_FLOAT"}}}, {"name": "xception_65/middle_flow/block1/unit_7/xception_module/separable_conv2_depthwise/depthwise/BatchToSpaceND/block_shape", "op": "Const", "attr": {"value": {"tensor": {"dtype": "DT_INT32", "tensorShape": {"dim": [{"size": "2"}]}}}, "dtype": {"type": "DT_INT32"}}}, {"name": "xception_65/middle_flow/block1/unit_7/xception_module/separable_conv2_depthwise/depthwise/BatchToSpaceND/crops", "op": "Const", "attr": {"dtype": {"type": "DT_INT32"}, "value": {"tensor": {"dtype": "DT_INT32", "tensorShape": {"dim": [{"size": "2"}, {"size": "2"}]}}}}}, {"name": "xception_65/middle_flow/block1/unit_7/xception_module/separable_conv3_depthwise/depthwise/SpaceToBatchND/block_shape", "op": "Const", "attr": {"dtype": {"type": "DT_INT32"}, "value": {"tensor": {"dtype": "DT_INT32", "tensorShape": {"dim": [{"size": "2"}]}}}}}, {"name": "xception_65/middle_flow/block1/unit_7/xception_module/separable_conv3_depthwise/depthwise/SpaceToBatchND/paddings", "op": "Const", "attr": {"value": {"tensor": {"dtype": "DT_INT32", "tensorShape": {"dim": [{"size": "2"}, {"size": "2"}]}}}, "dtype": {"type": "DT_INT32"}}}, {"name": "xception_65/middle_flow/block1/unit_7/xception_module/separable_conv3_depthwise/depthwise_weights", "op": "Const", "attr": {"dtype": {"type": "DT_FLOAT"}, "value": {"tensor": {"dtype": "DT_FLOAT", "tensorShape": {"dim": [{"size": "3"}, {"size": "3"}, {"size": "728"}, {"size": "1"}]}}}}}, {"name": "xception_65/middle_flow/block1/unit_7/xception_module/separable_conv3_depthwise/depthwise/BatchToSpaceND/block_shape", "op": "Const", "attr": {"value": {"tensor": {"dtype": "DT_INT32", "tensorShape": {"dim": [{"size": "2"}]}}}, "dtype": {"type": "DT_INT32"}}}, {"name": "xception_65/middle_flow/block1/unit_7/xception_module/separable_conv3_depthwise/depthwise/BatchToSpaceND/crops", "op": "Const", "attr": {"value": {"tensor": {"dtype": "DT_INT32", "tensorShape": {"dim": [{"size": "2"}, {"size": "2"}]}}}, "dtype": {"type": "DT_INT32"}}}, {"name": "xception_65/middle_flow/block1/unit_6/xception_module/separable_conv1_depthwise/depthwise/SpaceToBatchND/block_shape", "op": "Const", "attr": {"dtype": {"type": "DT_INT32"}, "value": {"tensor": {"dtype": "DT_INT32", "tensorShape": {"dim": [{"size": "2"}]}}}}}, {"name": "xception_65/middle_flow/block1/unit_6/xception_module/separable_conv1_depthwise/depthwise/SpaceToBatchND/paddings", "op": "Const", "attr": {"dtype": {"type": "DT_INT32"}, "value": {"tensor": {"dtype": "DT_INT32", "tensorShape": {"dim": [{"size": "2"}, {"size": "2"}]}}}}}, {"name": "xception_65/middle_flow/block1/unit_6/xception_module/separable_conv1_depthwise/depthwise_weights", "op": "Const", "attr": {"value": {"tensor": {"dtype": "DT_FLOAT", "tensorShape": {"dim": [{"size": "3"}, {"size": "3"}, {"size": "728"}, {"size": "1"}]}}}, "dtype": {"type": "DT_FLOAT"}}}, {"name": "xception_65/middle_flow/block1/unit_6/xception_module/separable_conv1_depthwise/depthwise/BatchToSpaceND/block_shape", "op": "Const", "attr": {"dtype": {"type": "DT_INT32"}, "value": {"tensor": {"dtype": "DT_INT32", "tensorShape": {"dim": [{"size": "2"}]}}}}}, {"name": "xception_65/middle_flow/block1/unit_6/xception_module/separable_conv1_depthwise/depthwise/BatchToSpaceND/crops", "op": "Const", "attr": {"value": {"tensor": {"dtype": "DT_INT32", "tensorShape": {"dim": [{"size": "2"}, {"size": "2"}]}}}, "dtype": {"type": "DT_INT32"}}}, {"name": "xception_65/middle_flow/block1/unit_6/xception_module/separable_conv2_depthwise/depthwise/SpaceToBatchND/block_shape", "op": "Const", "attr": {"value": {"tensor": {"dtype": "DT_INT32", "tensorShape": {"dim": [{"size": "2"}]}}}, "dtype": {"type": "DT_INT32"}}}, {"name": "xception_65/middle_flow/block1/unit_6/xception_module/separable_conv2_depthwise/depthwise/SpaceToBatchND/paddings", "op": "Const", "attr": {"dtype": {"type": "DT_INT32"}, "value": {"tensor": {"dtype": "DT_INT32", "tensorShape": {"dim": [{"size": "2"}, {"size": "2"}]}}}}}, {"name": "xception_65/middle_flow/block1/unit_6/xception_module/separable_conv2_depthwise/depthwise_weights", "op": "Const", "attr": {"value": {"tensor": {"dtype": "DT_FLOAT", "tensorShape": {"dim": [{"size": "3"}, {"size": "3"}, {"size": "728"}, {"size": "1"}]}}}, "dtype": {"type": "DT_FLOAT"}}}, {"name": "xception_65/middle_flow/block1/unit_6/xception_module/separable_conv2_depthwise/depthwise/BatchToSpaceND/block_shape", "op": "Const", "attr": {"value": {"tensor": {"dtype": "DT_INT32", "tensorShape": {"dim": [{"size": "2"}]}}}, "dtype": {"type": "DT_INT32"}}}, {"name": "xception_65/middle_flow/block1/unit_6/xception_module/separable_conv2_depthwise/depthwise/BatchToSpaceND/crops", "op": "Const", "attr": {"value": {"tensor": {"dtype": "DT_INT32", "tensorShape": {"dim": [{"size": "2"}, {"size": "2"}]}}}, "dtype": {"type": "DT_INT32"}}}, {"name": "xception_65/middle_flow/block1/unit_6/xception_module/separable_conv3_depthwise/depthwise/SpaceToBatchND/block_shape", "op": "Const", "attr": {"dtype": {"type": "DT_INT32"}, "value": {"tensor": {"dtype": "DT_INT32", "tensorShape": {"dim": [{"size": "2"}]}}}}}, {"name": "xception_65/middle_flow/block1/unit_6/xception_module/separable_conv3_depthwise/depthwise/SpaceToBatchND/paddings", "op": "Const", "attr": {"value": {"tensor": {"dtype": "DT_INT32", "tensorShape": {"dim": [{"size": "2"}, {"size": "2"}]}}}, "dtype": {"type": "DT_INT32"}}}, {"name": "xception_65/middle_flow/block1/unit_6/xception_module/separable_conv3_depthwise/depthwise_weights", "op": "Const", "attr": {"dtype": {"type": "DT_FLOAT"}, "value": {"tensor": {"dtype": "DT_FLOAT", "tensorShape": {"dim": [{"size": "3"}, {"size": "3"}, {"size": "728"}, {"size": "1"}]}}}}}, {"name": "xception_65/middle_flow/block1/unit_6/xception_module/separable_conv3_depthwise/depthwise/BatchToSpaceND/block_shape", "op": "Const", "attr": {"dtype": {"type": "DT_INT32"}, "value": {"tensor": {"dtype": "DT_INT32", "tensorShape": {"dim": [{"size": "2"}]}}}}}, {"name": "xception_65/middle_flow/block1/unit_6/xception_module/separable_conv3_depthwise/depthwise/BatchToSpaceND/crops", "op": "Const", "attr": {"dtype": {"type": "DT_INT32"}, "value": {"tensor": {"dtype": "DT_INT32", "tensorShape": {"dim": [{"size": "2"}, {"size": "2"}]}}}}}, {"name": "xception_65/middle_flow/block1/unit_5/xception_module/separable_conv1_depthwise/depthwise/SpaceToBatchND/block_shape", "op": "Const", "attr": {"dtype": {"type": "DT_INT32"}, "value": {"tensor": {"dtype": "DT_INT32", "tensorShape": {"dim": [{"size": "2"}]}}}}}, {"name": "xception_65/middle_flow/block1/unit_5/xception_module/separable_conv1_depthwise/depthwise/SpaceToBatchND/paddings", "op": "Const", "attr": {"dtype": {"type": "DT_INT32"}, "value": {"tensor": {"dtype": "DT_INT32", "tensorShape": {"dim": [{"size": "2"}, {"size": "2"}]}}}}}, {"name": "xception_65/middle_flow/block1/unit_5/xception_module/separable_conv1_depthwise/depthwise_weights", "op": "Const", "attr": {"dtype": {"type": "DT_FLOAT"}, "value": {"tensor": {"dtype": "DT_FLOAT", "tensorShape": {"dim": [{"size": "3"}, {"size": "3"}, {"size": "728"}, {"size": "1"}]}}}}}, {"name": "xception_65/middle_flow/block1/unit_5/xception_module/separable_conv1_depthwise/depthwise/BatchToSpaceND/block_shape", "op": "Const", "attr": {"dtype": {"type": "DT_INT32"}, "value": {"tensor": {"dtype": "DT_INT32", "tensorShape": {"dim": [{"size": "2"}]}}}}}, {"name": "xception_65/middle_flow/block1/unit_5/xception_module/separable_conv1_depthwise/depthwise/BatchToSpaceND/crops", "op": "Const", "attr": {"dtype": {"type": "DT_INT32"}, "value": {"tensor": {"dtype": "DT_INT32", "tensorShape": {"dim": [{"size": "2"}, {"size": "2"}]}}}}}, {"name": "xception_65/middle_flow/block1/unit_5/xception_module/separable_conv2_depthwise/depthwise/SpaceToBatchND/block_shape", "op": "Const", "attr": {"value": {"tensor": {"dtype": "DT_INT32", "tensorShape": {"dim": [{"size": "2"}]}}}, "dtype": {"type": "DT_INT32"}}}, {"name": "xception_65/middle_flow/block1/unit_5/xception_module/separable_conv2_depthwise/depthwise/SpaceToBatchND/paddings", "op": "Const", "attr": {"value": {"tensor": {"dtype": "DT_INT32", "tensorShape": {"dim": [{"size": "2"}, {"size": "2"}]}}}, "dtype": {"type": "DT_INT32"}}}, {"name": "xception_65/middle_flow/block1/unit_5/xception_module/separable_conv2_depthwise/depthwise_weights", "op": "Const", "attr": {"value": {"tensor": {"dtype": "DT_FLOAT", "tensorShape": {"dim": [{"size": "3"}, {"size": "3"}, {"size": "728"}, {"size": "1"}]}}}, "dtype": {"type": "DT_FLOAT"}}}, {"name": "xception_65/middle_flow/block1/unit_5/xception_module/separable_conv2_depthwise/depthwise/BatchToSpaceND/block_shape", "op": "Const", "attr": {"dtype": {"type": "DT_INT32"}, "value": {"tensor": {"dtype": "DT_INT32", "tensorShape": {"dim": [{"size": "2"}]}}}}}, {"name": "xception_65/middle_flow/block1/unit_5/xception_module/separable_conv2_depthwise/depthwise/BatchToSpaceND/crops", "op": "Const", "attr": {"value": {"tensor": {"dtype": "DT_INT32", "tensorShape": {"dim": [{"size": "2"}, {"size": "2"}]}}}, "dtype": {"type": "DT_INT32"}}}, {"name": "xception_65/middle_flow/block1/unit_5/xception_module/separable_conv3_depthwise/depthwise/SpaceToBatchND/block_shape", "op": "Const", "attr": {"value": {"tensor": {"dtype": "DT_INT32", "tensorShape": {"dim": [{"size": "2"}]}}}, "dtype": {"type": "DT_INT32"}}}, {"name": "xception_65/middle_flow/block1/unit_5/xception_module/separable_conv3_depthwise/depthwise/SpaceToBatchND/paddings", "op": "Const", "attr": {"dtype": {"type": "DT_INT32"}, "value": {"tensor": {"dtype": "DT_INT32", "tensorShape": {"dim": [{"size": "2"}, {"size": "2"}]}}}}}, {"name": "xception_65/middle_flow/block1/unit_5/xception_module/separable_conv3_depthwise/depthwise_weights", "op": "Const", "attr": {"dtype": {"type": "DT_FLOAT"}, "value": {"tensor": {"dtype": "DT_FLOAT", "tensorShape": {"dim": [{"size": "3"}, {"size": "3"}, {"size": "728"}, {"size": "1"}]}}}}}, {"name": "xception_65/middle_flow/block1/unit_5/xception_module/separable_conv3_depthwise/depthwise/BatchToSpaceND/block_shape", "op": "Const", "attr": {"value": {"tensor": {"dtype": "DT_INT32", "tensorShape": {"dim": [{"size": "2"}]}}}, "dtype": {"type": "DT_INT32"}}}, {"name": "xception_65/middle_flow/block1/unit_5/xception_module/separable_conv3_depthwise/depthwise/BatchToSpaceND/crops", "op": "Const", "attr": {"value": {"tensor": {"dtype": "DT_INT32", "tensorShape": {"dim": [{"size": "2"}, {"size": "2"}]}}}, "dtype": {"type": "DT_INT32"}}}, {"name": "xception_65/middle_flow/block1/unit_4/xception_module/separable_conv1_depthwise/depthwise/SpaceToBatchND/block_shape", "op": "Const", "attr": {"value": {"tensor": {"dtype": "DT_INT32", "tensorShape": {"dim": [{"size": "2"}]}}}, "dtype": {"type": "DT_INT32"}}}, {"name": "xception_65/middle_flow/block1/unit_4/xception_module/separable_conv1_depthwise/depthwise/SpaceToBatchND/paddings", "op": "Const", "attr": {"dtype": {"type": "DT_INT32"}, "value": {"tensor": {"dtype": "DT_INT32", "tensorShape": {"dim": [{"size": "2"}, {"size": "2"}]}}}}}, {"name": "xception_65/middle_flow/block1/unit_4/xception_module/separable_conv1_depthwise/depthwise_weights", "op": "Const", "attr": {"value": {"tensor": {"dtype": "DT_FLOAT", "tensorShape": {"dim": [{"size": "3"}, {"size": "3"}, {"size": "728"}, {"size": "1"}]}}}, "dtype": {"type": "DT_FLOAT"}}}, {"name": "xception_65/middle_flow/block1/unit_4/xception_module/separable_conv1_depthwise/depthwise/BatchToSpaceND/block_shape", "op": "Const", "attr": {"value": {"tensor": {"dtype": "DT_INT32", "tensorShape": {"dim": [{"size": "2"}]}}}, "dtype": {"type": "DT_INT32"}}}, {"name": "xception_65/middle_flow/block1/unit_4/xception_module/separable_conv1_depthwise/depthwise/BatchToSpaceND/crops", "op": "Const", "attr": {"value": {"tensor": {"dtype": "DT_INT32", "tensorShape": {"dim": [{"size": "2"}, {"size": "2"}]}}}, "dtype": {"type": "DT_INT32"}}}, {"name": "xception_65/middle_flow/block1/unit_4/xception_module/separable_conv2_depthwise/depthwise/SpaceToBatchND/block_shape", "op": "Const", "attr": {"dtype": {"type": "DT_INT32"}, "value": {"tensor": {"dtype": "DT_INT32", "tensorShape": {"dim": [{"size": "2"}]}}}}}, {"name": "xception_65/middle_flow/block1/unit_4/xception_module/separable_conv2_depthwise/depthwise/SpaceToBatchND/paddings", "op": "Const", "attr": {"dtype": {"type": "DT_INT32"}, "value": {"tensor": {"dtype": "DT_INT32", "tensorShape": {"dim": [{"size": "2"}, {"size": "2"}]}}}}}, {"name": "xception_65/middle_flow/block1/unit_4/xception_module/separable_conv2_depthwise/depthwise_weights", "op": "Const", "attr": {"value": {"tensor": {"dtype": "DT_FLOAT", "tensorShape": {"dim": [{"size": "3"}, {"size": "3"}, {"size": "728"}, {"size": "1"}]}}}, "dtype": {"type": "DT_FLOAT"}}}, {"name": "xception_65/middle_flow/block1/unit_4/xception_module/separable_conv2_depthwise/depthwise/BatchToSpaceND/block_shape", "op": "Const", "attr": {"value": {"tensor": {"dtype": "DT_INT32", "tensorShape": {"dim": [{"size": "2"}]}}}, "dtype": {"type": "DT_INT32"}}}, {"name": "xception_65/middle_flow/block1/unit_4/xception_module/separable_conv2_depthwise/depthwise/BatchToSpaceND/crops", "op": "Const", "attr": {"dtype": {"type": "DT_INT32"}, "value": {"tensor": {"dtype": "DT_INT32", "tensorShape": {"dim": [{"size": "2"}, {"size": "2"}]}}}}}, {"name": "xception_65/middle_flow/block1/unit_4/xception_module/separable_conv3_depthwise/depthwise/SpaceToBatchND/block_shape", "op": "Const", "attr": {"dtype": {"type": "DT_INT32"}, "value": {"tensor": {"dtype": "DT_INT32", "tensorShape": {"dim": [{"size": "2"}]}}}}}, {"name": "xception_65/middle_flow/block1/unit_4/xception_module/separable_conv3_depthwise/depthwise/SpaceToBatchND/paddings", "op": "Const", "attr": {"dtype": {"type": "DT_INT32"}, "value": {"tensor": {"dtype": "DT_INT32", "tensorShape": {"dim": [{"size": "2"}, {"size": "2"}]}}}}}, {"name": "xception_65/middle_flow/block1/unit_4/xception_module/separable_conv3_depthwise/depthwise_weights", "op": "Const", "attr": {"dtype": {"type": "DT_FLOAT"}, "value": {"tensor": {"dtype": "DT_FLOAT", "tensorShape": {"dim": [{"size": "3"}, {"size": "3"}, {"size": "728"}, {"size": "1"}]}}}}}, {"name": "xception_65/middle_flow/block1/unit_4/xception_module/separable_conv3_depthwise/depthwise/BatchToSpaceND/block_shape", "op": "Const", "attr": {"value": {"tensor": {"dtype": "DT_INT32", "tensorShape": {"dim": [{"size": "2"}]}}}, "dtype": {"type": "DT_INT32"}}}, {"name": "xception_65/middle_flow/block1/unit_4/xception_module/separable_conv3_depthwise/depthwise/BatchToSpaceND/crops", "op": "Const", "attr": {"value": {"tensor": {"dtype": "DT_INT32", "tensorShape": {"dim": [{"size": "2"}, {"size": "2"}]}}}, "dtype": {"type": "DT_INT32"}}}, {"name": "xception_65/middle_flow/block1/unit_3/xception_module/separable_conv1_depthwise/depthwise/SpaceToBatchND/block_shape", "op": "Const", "attr": {"dtype": {"type": "DT_INT32"}, "value": {"tensor": {"dtype": "DT_INT32", "tensorShape": {"dim": [{"size": "2"}]}}}}}, {"name": "xception_65/middle_flow/block1/unit_3/xception_module/separable_conv1_depthwise/depthwise/SpaceToBatchND/paddings", "op": "Const", "attr": {"value": {"tensor": {"dtype": "DT_INT32", "tensorShape": {"dim": [{"size": "2"}, {"size": "2"}]}}}, "dtype": {"type": "DT_INT32"}}}, {"name": "xception_65/middle_flow/block1/unit_3/xception_module/separable_conv1_depthwise/depthwise_weights", "op": "Const", "attr": {"value": {"tensor": {"dtype": "DT_FLOAT", "tensorShape": {"dim": [{"size": "3"}, {"size": "3"}, {"size": "728"}, {"size": "1"}]}}}, "dtype": {"type": "DT_FLOAT"}}}, {"name": "xception_65/middle_flow/block1/unit_3/xception_module/separable_conv1_depthwise/depthwise/BatchToSpaceND/block_shape", "op": "Const", "attr": {"dtype": {"type": "DT_INT32"}, "value": {"tensor": {"dtype": "DT_INT32", "tensorShape": {"dim": [{"size": "2"}]}}}}}, {"name": "xception_65/middle_flow/block1/unit_3/xception_module/separable_conv1_depthwise/depthwise/BatchToSpaceND/crops", "op": "Const", "attr": {"value": {"tensor": {"dtype": "DT_INT32", "tensorShape": {"dim": [{"size": "2"}, {"size": "2"}]}}}, "dtype": {"type": "DT_INT32"}}}, {"name": "xception_65/middle_flow/block1/unit_3/xception_module/separable_conv2_depthwise/depthwise/SpaceToBatchND/block_shape", "op": "Const", "attr": {"value": {"tensor": {"dtype": "DT_INT32", "tensorShape": {"dim": [{"size": "2"}]}}}, "dtype": {"type": "DT_INT32"}}}, {"name": "xception_65/middle_flow/block1/unit_3/xception_module/separable_conv2_depthwise/depthwise/SpaceToBatchND/paddings", "op": "Const", "attr": {"value": {"tensor": {"dtype": "DT_INT32", "tensorShape": {"dim": [{"size": "2"}, {"size": "2"}]}}}, "dtype": {"type": "DT_INT32"}}}, {"name": "xception_65/middle_flow/block1/unit_3/xception_module/separable_conv2_depthwise/depthwise_weights", "op": "Const", "attr": {"dtype": {"type": "DT_FLOAT"}, "value": {"tensor": {"dtype": "DT_FLOAT", "tensorShape": {"dim": [{"size": "3"}, {"size": "3"}, {"size": "728"}, {"size": "1"}]}}}}}, {"name": "xception_65/middle_flow/block1/unit_3/xception_module/separable_conv2_depthwise/depthwise/BatchToSpaceND/block_shape", "op": "Const", "attr": {"value": {"tensor": {"dtype": "DT_INT32", "tensorShape": {"dim": [{"size": "2"}]}}}, "dtype": {"type": "DT_INT32"}}}, {"name": "xception_65/middle_flow/block1/unit_3/xception_module/separable_conv2_depthwise/depthwise/BatchToSpaceND/crops", "op": "Const", "attr": {"dtype": {"type": "DT_INT32"}, "value": {"tensor": {"dtype": "DT_INT32", "tensorShape": {"dim": [{"size": "2"}, {"size": "2"}]}}}}}, {"name": "xception_65/middle_flow/block1/unit_3/xception_module/separable_conv3_depthwise/depthwise/SpaceToBatchND/block_shape", "op": "Const", "attr": {"value": {"tensor": {"dtype": "DT_INT32", "tensorShape": {"dim": [{"size": "2"}]}}}, "dtype": {"type": "DT_INT32"}}}, {"name": "xception_65/middle_flow/block1/unit_3/xception_module/separable_conv3_depthwise/depthwise/SpaceToBatchND/paddings", "op": "Const", "attr": {"value": {"tensor": {"dtype": "DT_INT32", "tensorShape": {"dim": [{"size": "2"}, {"size": "2"}]}}}, "dtype": {"type": "DT_INT32"}}}, {"name": "xception_65/middle_flow/block1/unit_3/xception_module/separable_conv3_depthwise/depthwise_weights", "op": "Const", "attr": {"value": {"tensor": {"dtype": "DT_FLOAT", "tensorShape": {"dim": [{"size": "3"}, {"size": "3"}, {"size": "728"}, {"size": "1"}]}}}, "dtype": {"type": "DT_FLOAT"}}}, {"name": "xception_65/middle_flow/block1/unit_3/xception_module/separable_conv3_depthwise/depthwise/BatchToSpaceND/block_shape", "op": "Const", "attr": {"dtype": {"type": "DT_INT32"}, "value": {"tensor": {"dtype": "DT_INT32", "tensorShape": {"dim": [{"size": "2"}]}}}}}, {"name": "xception_65/middle_flow/block1/unit_3/xception_module/separable_conv3_depthwise/depthwise/BatchToSpaceND/crops", "op": "Const", "attr": {"value": {"tensor": {"dtype": "DT_INT32", "tensorShape": {"dim": [{"size": "2"}, {"size": "2"}]}}}, "dtype": {"type": "DT_INT32"}}}, {"name": "xception_65/middle_flow/block1/unit_2/xception_module/separable_conv1_depthwise/depthwise/SpaceToBatchND/block_shape", "op": "Const", "attr": {"dtype": {"type": "DT_INT32"}, "value": {"tensor": {"dtype": "DT_INT32", "tensorShape": {"dim": [{"size": "2"}]}}}}}, {"name": "xception_65/middle_flow/block1/unit_2/xception_module/separable_conv1_depthwise/depthwise/SpaceToBatchND/paddings", "op": "Const", "attr": {"dtype": {"type": "DT_INT32"}, "value": {"tensor": {"dtype": "DT_INT32", "tensorShape": {"dim": [{"size": "2"}, {"size": "2"}]}}}}}, {"name": "xception_65/middle_flow/block1/unit_2/xception_module/separable_conv1_depthwise/depthwise_weights", "op": "Const", "attr": {"value": {"tensor": {"dtype": "DT_FLOAT", "tensorShape": {"dim": [{"size": "3"}, {"size": "3"}, {"size": "728"}, {"size": "1"}]}}}, "dtype": {"type": "DT_FLOAT"}}}, {"name": "xception_65/middle_flow/block1/unit_2/xception_module/separable_conv1_depthwise/depthwise/BatchToSpaceND/block_shape", "op": "Const", "attr": {"dtype": {"type": "DT_INT32"}, "value": {"tensor": {"dtype": "DT_INT32", "tensorShape": {"dim": [{"size": "2"}]}}}}}, {"name": "xception_65/middle_flow/block1/unit_2/xception_module/separable_conv1_depthwise/depthwise/BatchToSpaceND/crops", "op": "Const", "attr": {"value": {"tensor": {"dtype": "DT_INT32", "tensorShape": {"dim": [{"size": "2"}, {"size": "2"}]}}}, "dtype": {"type": "DT_INT32"}}}, {"name": "xception_65/middle_flow/block1/unit_2/xception_module/separable_conv2_depthwise/depthwise/SpaceToBatchND/block_shape", "op": "Const", "attr": {"value": {"tensor": {"dtype": "DT_INT32", "tensorShape": {"dim": [{"size": "2"}]}}}, "dtype": {"type": "DT_INT32"}}}, {"name": "xception_65/middle_flow/block1/unit_2/xception_module/separable_conv2_depthwise/depthwise/SpaceToBatchND/paddings", "op": "Const", "attr": {"value": {"tensor": {"dtype": "DT_INT32", "tensorShape": {"dim": [{"size": "2"}, {"size": "2"}]}}}, "dtype": {"type": "DT_INT32"}}}, {"name": "xception_65/middle_flow/block1/unit_2/xception_module/separable_conv2_depthwise/depthwise_weights", "op": "Const", "attr": {"value": {"tensor": {"dtype": "DT_FLOAT", "tensorShape": {"dim": [{"size": "3"}, {"size": "3"}, {"size": "728"}, {"size": "1"}]}}}, "dtype": {"type": "DT_FLOAT"}}}, {"name": "xception_65/middle_flow/block1/unit_2/xception_module/separable_conv2_depthwise/depthwise/BatchToSpaceND/block_shape", "op": "Const", "attr": {"value": {"tensor": {"dtype": "DT_INT32", "tensorShape": {"dim": [{"size": "2"}]}}}, "dtype": {"type": "DT_INT32"}}}, {"name": "xception_65/middle_flow/block1/unit_2/xception_module/separable_conv2_depthwise/depthwise/BatchToSpaceND/crops", "op": "Const", "attr": {"value": {"tensor": {"dtype": "DT_INT32", "tensorShape": {"dim": [{"size": "2"}, {"size": "2"}]}}}, "dtype": {"type": "DT_INT32"}}}, {"name": "xception_65/middle_flow/block1/unit_2/xception_module/separable_conv3_depthwise/depthwise/SpaceToBatchND/block_shape", "op": "Const", "attr": {"dtype": {"type": "DT_INT32"}, "value": {"tensor": {"dtype": "DT_INT32", "tensorShape": {"dim": [{"size": "2"}]}}}}}, {"name": "xception_65/middle_flow/block1/unit_2/xception_module/separable_conv3_depthwise/depthwise/SpaceToBatchND/paddings", "op": "Const", "attr": {"value": {"tensor": {"dtype": "DT_INT32", "tensorShape": {"dim": [{"size": "2"}, {"size": "2"}]}}}, "dtype": {"type": "DT_INT32"}}}, {"name": "xception_65/middle_flow/block1/unit_2/xception_module/separable_conv3_depthwise/depthwise_weights", "op": "Const", "attr": {"dtype": {"type": "DT_FLOAT"}, "value": {"tensor": {"dtype": "DT_FLOAT", "tensorShape": {"dim": [{"size": "3"}, {"size": "3"}, {"size": "728"}, {"size": "1"}]}}}}}, {"name": "xception_65/middle_flow/block1/unit_2/xception_module/separable_conv3_depthwise/depthwise/BatchToSpaceND/block_shape", "op": "Const", "attr": {"value": {"tensor": {"dtype": "DT_INT32", "tensorShape": {"dim": [{"size": "2"}]}}}, "dtype": {"type": "DT_INT32"}}}, {"name": "xception_65/middle_flow/block1/unit_2/xception_module/separable_conv3_depthwise/depthwise/BatchToSpaceND/crops", "op": "Const", "attr": {"value": {"tensor": {"dtype": "DT_INT32", "tensorShape": {"dim": [{"size": "2"}, {"size": "2"}]}}}, "dtype": {"type": "DT_INT32"}}}, {"name": "xception_65/middle_flow/block1/unit_1/xception_module/separable_conv1_depthwise/depthwise/SpaceToBatchND/block_shape", "op": "Const", "attr": {"value": {"tensor": {"dtype": "DT_INT32", "tensorShape": {"dim": [{"size": "2"}]}}}, "dtype": {"type": "DT_INT32"}}}, {"name": "xception_65/middle_flow/block1/unit_1/xception_module/separable_conv1_depthwise/depthwise/SpaceToBatchND/paddings", "op": "Const", "attr": {"dtype": {"type": "DT_INT32"}, "value": {"tensor": {"dtype": "DT_INT32", "tensorShape": {"dim": [{"size": "2"}, {"size": "2"}]}}}}}, {"name": "xception_65/middle_flow/block1/unit_1/xception_module/separable_conv1_depthwise/depthwise_weights", "op": "Const", "attr": {"value": {"tensor": {"dtype": "DT_FLOAT", "tensorShape": {"dim": [{"size": "3"}, {"size": "3"}, {"size": "728"}, {"size": "1"}]}}}, "dtype": {"type": "DT_FLOAT"}}}, {"name": "xception_65/middle_flow/block1/unit_1/xception_module/separable_conv1_depthwise/depthwise/BatchToSpaceND/block_shape", "op": "Const", "attr": {"dtype": {"type": "DT_INT32"}, "value": {"tensor": {"dtype": "DT_INT32", "tensorShape": {"dim": [{"size": "2"}]}}}}}, {"name": "xception_65/middle_flow/block1/unit_1/xception_module/separable_conv1_depthwise/depthwise/BatchToSpaceND/crops", "op": "Const", "attr": {"value": {"tensor": {"dtype": "DT_INT32", "tensorShape": {"dim": [{"size": "2"}, {"size": "2"}]}}}, "dtype": {"type": "DT_INT32"}}}, {"name": "xception_65/middle_flow/block1/unit_1/xception_module/separable_conv2_depthwise/depthwise/SpaceToBatchND/block_shape", "op": "Const", "attr": {"value": {"tensor": {"dtype": "DT_INT32", "tensorShape": {"dim": [{"size": "2"}]}}}, "dtype": {"type": "DT_INT32"}}}, {"name": "xception_65/middle_flow/block1/unit_1/xception_module/separable_conv2_depthwise/depthwise/SpaceToBatchND/paddings", "op": "Const", "attr": {"dtype": {"type": "DT_INT32"}, "value": {"tensor": {"dtype": "DT_INT32", "tensorShape": {"dim": [{"size": "2"}, {"size": "2"}]}}}}}, {"name": "xception_65/middle_flow/block1/unit_1/xception_module/separable_conv2_depthwise/depthwise_weights", "op": "Const", "attr": {"value": {"tensor": {"dtype": "DT_FLOAT", "tensorShape": {"dim": [{"size": "3"}, {"size": "3"}, {"size": "728"}, {"size": "1"}]}}}, "dtype": {"type": "DT_FLOAT"}}}, {"name": "xception_65/middle_flow/block1/unit_1/xception_module/separable_conv2_depthwise/depthwise/BatchToSpaceND/block_shape", "op": "Const", "attr": {"value": {"tensor": {"dtype": "DT_INT32", "tensorShape": {"dim": [{"size": "2"}]}}}, "dtype": {"type": "DT_INT32"}}}, {"name": "xception_65/middle_flow/block1/unit_1/xception_module/separable_conv2_depthwise/depthwise/BatchToSpaceND/crops", "op": "Const", "attr": {"dtype": {"type": "DT_INT32"}, "value": {"tensor": {"dtype": "DT_INT32", "tensorShape": {"dim": [{"size": "2"}, {"size": "2"}]}}}}}, {"name": "xception_65/middle_flow/block1/unit_1/xception_module/separable_conv3_depthwise/depthwise/SpaceToBatchND/block_shape", "op": "Const", "attr": {"dtype": {"type": "DT_INT32"}, "value": {"tensor": {"dtype": "DT_INT32", "tensorShape": {"dim": [{"size": "2"}]}}}}}, {"name": "xception_65/middle_flow/block1/unit_1/xception_module/separable_conv3_depthwise/depthwise/SpaceToBatchND/paddings", "op": "Const", "attr": {"value": {"tensor": {"dtype": "DT_INT32", "tensorShape": {"dim": [{"size": "2"}, {"size": "2"}]}}}, "dtype": {"type": "DT_INT32"}}}, {"name": "xception_65/middle_flow/block1/unit_1/xception_module/separable_conv3_depthwise/depthwise_weights", "op": "Const", "attr": {"value": {"tensor": {"dtype": "DT_FLOAT", "tensorShape": {"dim": [{"size": "3"}, {"size": "3"}, {"size": "728"}, {"size": "1"}]}}}, "dtype": {"type": "DT_FLOAT"}}}, {"name": "xception_65/middle_flow/block1/unit_1/xception_module/separable_conv3_depthwise/depthwise/BatchToSpaceND/block_shape", "op": "Const", "attr": {"dtype": {"type": "DT_INT32"}, "value": {"tensor": {"dtype": "DT_INT32", "tensorShape": {"dim": [{"size": "2"}]}}}}}, {"name": "xception_65/middle_flow/block1/unit_1/xception_module/separable_conv3_depthwise/depthwise/BatchToSpaceND/crops", "op": "Const", "attr": {"dtype": {"type": "DT_INT32"}, "value": {"tensor": {"dtype": "DT_INT32", "tensorShape": {"dim": [{"size": "2"}, {"size": "2"}]}}}}}, {"name": "xception_65/entry_flow/block2/unit_1/xception_module/Pad/paddings", "op": "Const", "attr": {"dtype": {"type": "DT_INT32"}, "value": {"tensor": {"dtype": "DT_INT32", "tensorShape": {"dim": [{"size": "4"}, {"size": "2"}]}}}}}, {"name": "xception_65/exit_flow/block2/unit_1/xception_module/separable_conv1_depthwise/depthwise/SpaceToBatchND/block_shape", "op": "Const", "attr": {"value": {"tensor": {"dtype": "DT_INT32", "tensorShape": {"dim": [{"size": "2"}]}}}, "dtype": {"type": "DT_INT32"}}}, {"name": "xception_65/exit_flow/block2/unit_1/xception_module/separable_conv1_depthwise/depthwise/SpaceToBatchND/paddings", "op": "Const", "attr": {"dtype": {"type": "DT_INT32"}, "value": {"tensor": {"dtype": "DT_INT32", "tensorShape": {"dim": [{"size": "2"}, {"size": "2"}]}}}}}, {"name": "xception_65/exit_flow/block2/unit_1/xception_module/separable_conv1_depthwise/depthwise_weights", "op": "Const", "attr": {"dtype": {"type": "DT_FLOAT"}, "value": {"tensor": {"dtype": "DT_FLOAT", "tensorShape": {"dim": [{"size": "3"}, {"size": "3"}, {"size": "1024"}, {"size": "1"}]}}}}}, {"name": "xception_65/exit_flow/block2/unit_1/xception_module/separable_conv1_depthwise/depthwise/BatchToSpaceND/block_shape", "op": "Const", "attr": {"dtype": {"type": "DT_INT32"}, "value": {"tensor": {"dtype": "DT_INT32", "tensorShape": {"dim": [{"size": "2"}]}}}}}, {"name": "xception_65/exit_flow/block2/unit_1/xception_module/separable_conv1_depthwise/depthwise/BatchToSpaceND/crops", "op": "Const", "attr": {"dtype": {"type": "DT_INT32"}, "value": {"tensor": {"dtype": "DT_INT32", "tensorShape": {"dim": [{"size": "2"}, {"size": "2"}]}}}}}, {"name": "xception_65/exit_flow/block2/unit_1/xception_module/separable_conv2_depthwise/depthwise/SpaceToBatchND/block_shape", "op": "Const", "attr": {"dtype": {"type": "DT_INT32"}, "value": {"tensor": {"dtype": "DT_INT32", "tensorShape": {"dim": [{"size": "2"}]}}}}}, {"name": "xception_65/exit_flow/block2/unit_1/xception_module/separable_conv2_depthwise/depthwise/SpaceToBatchND/paddings", "op": "Const", "attr": {"dtype": {"type": "DT_INT32"}, "value": {"tensor": {"dtype": "DT_INT32", "tensorShape": {"dim": [{"size": "2"}, {"size": "2"}]}}}}}, {"name": "xception_65/exit_flow/block2/unit_1/xception_module/separable_conv2_depthwise/depthwise_weights", "op": "Const", "attr": {"value": {"tensor": {"dtype": "DT_FLOAT", "tensorShape": {"dim": [{"size": "3"}, {"size": "3"}, {"size": "1536"}, {"size": "1"}]}}}, "dtype": {"type": "DT_FLOAT"}}}, {"name": "xception_65/exit_flow/block2/unit_1/xception_module/separable_conv2_depthwise/depthwise/BatchToSpaceND/block_shape", "op": "Const", "attr": {"value": {"tensor": {"dtype": "DT_INT32", "tensorShape": {"dim": [{"size": "2"}]}}}, "dtype": {"type": "DT_INT32"}}}, {"name": "xception_65/exit_flow/block2/unit_1/xception_module/separable_conv2_depthwise/depthwise/BatchToSpaceND/crops", "op": "Const", "attr": {"value": {"tensor": {"dtype": "DT_INT32", "tensorShape": {"dim": [{"size": "2"}, {"size": "2"}]}}}, "dtype": {"type": "DT_INT32"}}}, {"name": "xception_65/exit_flow/block2/unit_1/xception_module/separable_conv3_depthwise/depthwise/SpaceToBatchND/block_shape", "op": "Const", "attr": {"dtype": {"type": "DT_INT32"}, "value": {"tensor": {"dtype": "DT_INT32", "tensorShape": {"dim": [{"size": "2"}]}}}}}, {"name": "xception_65/exit_flow/block2/unit_1/xception_module/separable_conv3_depthwise/depthwise/SpaceToBatchND/paddings", "op": "Const", "attr": {"value": {"tensor": {"dtype": "DT_INT32", "tensorShape": {"dim": [{"size": "2"}, {"size": "2"}]}}}, "dtype": {"type": "DT_INT32"}}}, {"name": "xception_65/exit_flow/block2/unit_1/xception_module/separable_conv3_depthwise/depthwise_weights", "op": "Const", "attr": {"value": {"tensor": {"dtype": "DT_FLOAT", "tensorShape": {"dim": [{"size": "3"}, {"size": "3"}, {"size": "1536"}, {"size": "1"}]}}}, "dtype": {"type": "DT_FLOAT"}}}, {"name": "xception_65/exit_flow/block2/unit_1/xception_module/separable_conv3_depthwise/depthwise/BatchToSpaceND/block_shape", "op": "Const", "attr": {"dtype": {"type": "DT_INT32"}, "value": {"tensor": {"dtype": "DT_INT32", "tensorShape": {"dim": [{"size": "2"}]}}}}}, {"name": "xception_65/exit_flow/block2/unit_1/xception_module/separable_conv3_depthwise/depthwise/BatchToSpaceND/crops", "op": "Const", "attr": {"dtype": {"type": "DT_INT32"}, "value": {"tensor": {"dtype": "DT_INT32", "tensorShape": {"dim": [{"size": "2"}, {"size": "2"}]}}}}}, {"name": "aspp3_depthwise/depthwise/SpaceToBatchND/block_shape", "op": "Const", "attr": {"dtype": {"type": "DT_INT32"}, "value": {"tensor": {"dtype": "DT_INT32", "tensorShape": {"dim": [{"size": "2"}]}}}}}, {"name": "aspp3_depthwise/depthwise/SpaceToBatchND/paddings", "op": "Const", "attr": {"value": {"tensor": {"dtype": "DT_INT32", "tensorShape": {"dim": [{"size": "2"}, {"size": "2"}]}}}, "dtype": {"type": "DT_INT32"}}}, {"name": "aspp3_depthwise/depthwise_weights", "op": "Const", "attr": {"dtype": {"type": "DT_FLOAT"}, "value": {"tensor": {"dtype": "DT_FLOAT", "tensorShape": {"dim": [{"size": "3"}, {"size": "3"}, {"size": "2048"}, {"size": "1"}]}}}}}, {"name": "aspp3_depthwise/depthwise/BatchToSpaceND/block_shape", "op": "Const", "attr": {"value": {"tensor": {"dtype": "DT_INT32", "tensorShape": {"dim": [{"size": "2"}]}}}, "dtype": {"type": "DT_INT32"}}}, {"name": "aspp3_depthwise/depthwise/BatchToSpaceND/crops", "op": "Const", "attr": {"dtype": {"type": "DT_INT32"}, "value": {"tensor": {"dtype": "DT_INT32", "tensorShape": {"dim": [{"size": "2"}, {"size": "2"}]}}}}}, {"name": "concat/axis", "op": "Const", "attr": {"value": {"tensor": {"dtype": "DT_INT32", "tensorShape": {}}}, "dtype": {"type": "DT_INT32"}}}, {"name": "decoder/ResizeBilinear/size", "op": "Const", "attr": {"value": {"tensor": {"dtype": "DT_INT32", "tensorShape": {"dim": [{"size": "2"}]}}}, "dtype": {"type": "DT_INT32"}}}, {"name": "xception_65/entry_flow/block1/unit_1/xception_module/Pad/paddings", "op": "Const", "attr": {"dtype": {"type": "DT_INT32"}, "value": {"tensor": {"dtype": "DT_INT32", "tensorShape": {"dim": [{"size": "4"}, {"size": "2"}]}}}}}, {"name": "mul_1/x", "op": "Const", "attr": {"value": {"tensor": {"dtype": "DT_FLOAT", "tensorShape": {}}}, "dtype": {"type": "DT_FLOAT"}}}, {"name": "stack/0", "op": "Const", "attr": {"dtype": {"type": "DT_INT32"}, "value": {"tensor": {"dtype": "DT_INT32", "tensorShape": {}}}}}, {"name": "sub/x", "op": "Const", "attr": {"value": {"tensor": {"dtype": "DT_INT32", "tensorShape": {}}}, "dtype": {"type": "DT_INT32"}}}, {"name": "strided_slice_3/stack", "op": "Const", "attr": {"dtype": {"type": "DT_INT32"}, "value": {"tensor": {"dtype": "DT_INT32", "tensorShape": {"dim": [{"size": "1"}]}}}}}, {"name": "strided_slice_3/stack_1", "op": "Const", "attr": {"dtype": {"type": "DT_INT32"}, "value": {"tensor": {"dtype": "DT_INT32", "tensorShape": {"dim": [{"size": "1"}]}}}}}, {"name": "strided_slice_3/stack_2", "op": "Const", "attr": {"dtype": {"type": "DT_INT32"}, "value": {"tensor": {"dtype": "DT_INT32", "tensorShape": {"dim": [{"size": "1"}]}}}}}, {"name": "Maximum/y", "op": "Const", "attr": {"dtype": {"type": "DT_INT32"}, "value": {"tensor": {"dtype": "DT_INT32", "tensorShape": {}}}}}, {"name": "strided_slice_5/stack", "op": "Const", "attr": {"dtype": {"type": "DT_INT32"}, "value": {"tensor": {"dtype": "DT_INT32", "tensorShape": {"dim": [{"size": "1"}]}}}}}, {"name": "strided_slice_5/stack_1", "op": "Const", "attr": {"value": {"tensor": {"dtype": "DT_INT32", "tensorShape": {"dim": [{"size": "1"}]}}}, "dtype": {"type": "DT_INT32"}}}, {"name": "strided_slice_5/stack_2", "op": "Const", "attr": {"value": {"tensor": {"dtype": "DT_INT32", "tensorShape": {"dim": [{"size": "1"}]}}}, "dtype": {"type": "DT_INT32"}}}, {"name": "stack_1/0", "op": "Const", "attr": {"dtype": {"type": "DT_INT32"}, "value": {"tensor": {"dtype": "DT_INT32", "tensorShape": {}}}}}, {"name": "sub_1/x", "op": "Const", "attr": {"dtype": {"type": "DT_INT32"}, "value": {"tensor": {"dtype": "DT_INT32", "tensorShape": {}}}}}, {"name": "strided_slice_4/stack", "op": "Const", "attr": {"dtype": {"type": "DT_INT32"}, "value": {"tensor": {"dtype": "DT_INT32", "tensorShape": {"dim": [{"size": "1"}]}}}}}, {"name": "strided_slice_4/stack_1", "op": "Const", "attr": {"value": {"tensor": {"dtype": "DT_INT32", "tensorShape": {"dim": [{"size": "1"}]}}}, "dtype": {"type": "DT_INT32"}}}, {"name": "strided_slice_4/stack_2", "op": "Const", "attr": {"value": {"tensor": {"dtype": "DT_INT32", "tensorShape": {"dim": [{"size": "1"}]}}}, "dtype": {"type": "DT_INT32"}}}, {"name": "Maximum_1/y", "op": "Const", "attr": {"value": {"tensor": {"dtype": "DT_INT32", "tensorShape": {}}}, "dtype": {"type": "DT_INT32"}}}, {"name": "ExpandDims/dim", "op": "Const", "attr": {"dtype": {"type": "DT_INT32"}, "value": {"tensor": {"dtype": "DT_INT32", "tensorShape": {}}}}}, {"name": "strided_slice_1/stack", "op": "Const", "attr": {"value": {"tensor": {"dtype": "DT_INT32", "tensorShape": {"dim": [{"size": "1"}]}}}, "dtype": {"type": "DT_INT32"}}}, {"name": "strided_slice_1/stack_1", "op": "Const", "attr": {"dtype": {"type": "DT_INT32"}, "value": {"tensor": {"dtype": "DT_INT32", "tensorShape": {"dim": [{"size": "1"}]}}}}}, {"name": "strided_slice_1/stack_2", "op": "Const", "attr": {"dtype": {"type": "DT_INT32"}, "value": {"tensor": {"dtype": "DT_INT32", "tensorShape": {"dim": [{"size": "1"}]}}}}}, {"name": "strided_slice_2/stack", "op": "Const", "attr": {"value": {"tensor": {"dtype": "DT_INT32", "tensorShape": {"dim": [{"size": "1"}]}}}, "dtype": {"type": "DT_INT32"}}}, {"name": "strided_slice_2/stack_1", "op": "Const", "attr": {"dtype": {"type": "DT_INT32"}, "value": {"tensor": {"dtype": "DT_INT32", "tensorShape": {"dim": [{"size": "1"}]}}}}}, {"name": "strided_slice_2/stack_2", "op": "Const", "attr": {"value": {"tensor": {"dtype": "DT_INT32", "tensorShape": {"dim": [{"size": "1"}]}}}, "dtype": {"type": "DT_INT32"}}}, {"name": "strided_slice_6/stack", "op": "Const", "attr": {"dtype": {"type": "DT_INT32"}, "value": {"tensor": {"dtype": "DT_INT32", "tensorShape": {"dim": [{"size": "1"}]}}}}}, {"name": "strided_slice_6/stack_1", "op": "Const", "attr": {"dtype": {"type": "DT_INT32"}, "value": {"tensor": {"dtype": "DT_INT32", "tensorShape": {"dim": [{"size": "1"}]}}}}}, {"name": "strided_slice_6/stack_2", "op": "Const", "attr": {"dtype": {"type": "DT_INT32"}, "value": {"tensor": {"dtype": "DT_INT32", "tensorShape": {"dim": [{"size": "1"}]}}}}}, {"name": "stack_2", "op": "Const", "attr": {"dtype": {"type": "DT_INT32"}, "value": {"tensor": {"dtype": "DT_INT32", "tensorShape": {"dim": [{"size": "2"}]}}}}}, {"name": "Reshape", "op": "Const", "attr": {"dtype": {"type": "DT_FLOAT"}, "value": {"tensor": {"dtype": "DT_FLOAT", "tensorShape": {"dim": [{"size": "1"}, {"size": "1"}, {"size": "3"}]}}}}}, {"name": "ExpandDims_1/dim", "op": "Const", "attr": {"value": {"tensor": {"dtype": "DT_INT32", "tensorShape": {}}}, "dtype": {"type": "DT_INT32"}}}, {"name": "sub_7/y", "op": "Const", "attr": {"value": {"tensor": {"dtype": "DT_FLOAT", "tensorShape": {}}}, "dtype": {"type": "DT_FLOAT"}}}, {"name": "xception_65/Pad/paddings", "op": "Const", "attr": {"dtype": {"type": "DT_INT32"}, "value": {"tensor": {"dtype": "DT_INT32", "tensorShape": {"dim": [{"size": "4"}, {"size": "2"}]}}}}}, {"name": "decoder/ResizeBilinear_1/size", "op": "Const", "attr": {"dtype": {"type": "DT_INT32"}, "value": {"tensor": {"dtype": "DT_INT32", "tensorShape": {"dim": [{"size": "2"}]}}}}}, {"name": "decoder/concat/axis", "op": "Const", "attr": {"dtype": {"type": "DT_INT32"}, "value": {"tensor": {"dtype": "DT_INT32", "tensorShape": {}}}}}, {"name": "logits/semantic/weights", "op": "Const", "attr": {"dtype": {"type": "DT_FLOAT"}, "value": {"tensor": {"dtype": "DT_FLOAT", "tensorShape": {"dim": [{"size": "1"}, {"size": "1"}, {"size": "256"}, {"size": "21"}]}}}}}, {"name": "logits/semantic/biases", "op": "Const", "attr": {"dtype": {"type": "DT_FLOAT"}, "value": {"tensor": {"dtype": "DT_FLOAT", "tensorShape": {"dim": [{"size": "21"}]}}}}}, {"name": "ResizeBilinear_2/size", "op": "Const", "attr": {"value": {"tensor": {"dtype": "DT_INT32", "tensorShape": {"dim": [{"size": "2"}]}}}, "dtype": {"type": "DT_INT32"}}}, {"name": "strided_slice_7", "op": "Const", "attr": {"value": {"tensor": {"dtype": "DT_INT32", "tensorShape": {"dim": [{"size": "2"}]}}}, "dtype": {"type": "DT_INT32"}}}, {"name": "ArgMax/dimension", "op": "Const", "attr": {"value": {"tensor": {"dtype": "DT_INT32", "tensorShape": {}}}, "dtype": {"type": "DT_INT32"}}}, {"name": "SemanticPredictions/begin", "op": "Const", "attr": {"value": {"tensor": {"dtype": "DT_INT32", "tensorShape": {"dim": [{"size": "3"}]}}}, "dtype": {"type": "DT_INT32"}}}, {"name": "SemanticPredictions/size/0", "op": "Const", "attr": {"dtype": {"type": "DT_INT32"}, "value": {"tensor": {"dtype": "DT_INT32", "tensorShape": {}}}}}, {"name": "strided_slice_8/stack", "op": "Const", "attr": {"dtype": {"type": "DT_INT32"}, "value": {"tensor": {"dtype": "DT_INT32", "tensorShape": {"dim": [{"size": "1"}]}}}}}, {"name": "strided_slice_8/stack_1", "op": "Const", "attr": {"dtype": {"type": "DT_INT32"}, "value": {"tensor": {"dtype": "DT_INT32", "tensorShape": {"dim": [{"size": "1"}]}}}}}, {"name": "strided_slice_8/stack_2", "op": "Const", "attr": {"value": {"tensor": {"dtype": "DT_INT32", "tensorShape": {"dim": [{"size": "1"}]}}}, "dtype": {"type": "DT_INT32"}}}, {"name": "ImageTensor", "op": "Placeholder", "attr": {"shape": {"shape": {"dim": [{"size": "1"}, {"size": "-1"}, {"size": "-1"}, {"size": "3"}]}}, "dtype": {"type": "DT_UINT8"}}}, {"name": "strided_slice/stack", "op": "Const", "attr": {"dtype": {"type": "DT_INT32"}, "value": {"tensor": {"dtype": "DT_INT32", "tensorShape": {"dim": [{"size": "1"}]}}}}}, {"name": "strided_slice/stack_1", "op": "Const", "attr": {"dtype": {"type": "DT_INT32"}, "value": {"tensor": {"dtype": "DT_INT32", "tensorShape": {"dim": [{"size": "1"}]}}}}}, {"name": "strided_slice/stack_2", "op": "Const", "attr": {"dtype": {"type": "DT_INT32"}, "value": {"tensor": {"dtype": "DT_INT32", "tensorShape": {"dim": [{"size": "1"}]}}}}}, {"name": "strided_slice_9/stack", "op": "Const", "attr": {"dtype": {"type": "DT_INT32"}, "value": {"tensor": {"dtype": "DT_INT32", "tensorShape": {"dim": [{"size": "1"}]}}}}}, {"name": "strided_slice_9/stack_1", "op": "Const", "attr": {"dtype": {"type": "DT_INT32"}, "value": {"tensor": {"dtype": "DT_INT32", "tensorShape": {"dim": [{"size": "1"}]}}}}}, {"name": "strided_slice_9/stack_2", "op": "Const", "attr": {"value": {"tensor": {"dtype": "DT_INT32", "tensorShape": {"dim": [{"size": "1"}]}}}, "dtype": {"type": "DT_INT32"}}}, {"name": "xception_65/entry_flow/conv1_1/Conv2D_weights", "op": "Const", "attr": {"value": {"tensor": {"dtype": "DT_FLOAT", "tensorShape": {"dim": [{"size": "3"}, {"size": "3"}, {"size": "3"}, {"size": "32"}]}}}, "dtype": {"type": "DT_FLOAT"}}}, {"name": "xception_65/entry_flow/conv1_1/Conv2D_bn_offset", "op": "Const", "attr": {"value": {"tensor": {"dtype": "DT_FLOAT", "tensorShape": {"dim": [{"size": "32"}]}}}, "dtype": {"type": "DT_FLOAT"}}}, {"name": "xception_65/entry_flow/conv1_2/Conv2D_weights", "op": "Const", "attr": {"dtype": {"type": "DT_FLOAT"}, "value": {"tensor": {"dtype": "DT_FLOAT", "tensorShape": {"dim": [{"size": "3"}, {"size": "3"}, {"size": "32"}, {"size": "64"}]}}}}}, {"name": "xception_65/middle_flow/block1/unit_7/xception_module/separable_conv1_depthwise/BatchNorm/FusedBatchNorm/Scaled", "op": "Const", "attr": {"value": {"tensor": {"dtype": "DT_FLOAT", "tensorShape": {"dim": [{"size": "728"}]}}}, "dtype": {"type": "DT_FLOAT"}}}, {"name": "xception_65/entry_flow/conv1_2/Conv2D_bn_offset", "op": "Const", "attr": {"dtype": {"type": "DT_FLOAT"}, "value": {"tensor": {"dtype": "DT_FLOAT", "tensorShape": {"dim": [{"size": "64"}]}}}}}, {"name": "xception_65/entry_flow/block1/unit_1/xception_module/shortcut/Conv2D_weights", "op": "Const", "attr": {"dtype": {"type": "DT_FLOAT"}, "value": {"tensor": {"dtype": "DT_FLOAT", "tensorShape": {"dim": [{"size": "1"}, {"size": "1"}, {"size": "64"}, {"size": "128"}]}}}}}, {"name": "xception_65/entry_flow/block1/unit_1/xception_module/shortcut/Conv2D_bn_offset", "op": "Const", "attr": {"value": {"tensor": {"dtype": "DT_FLOAT", "tensorShape": {"dim": [{"size": "128"}]}}}, "dtype": {"type": "DT_FLOAT"}}}, {"name": "xception_65/entry_flow/block1/unit_1/xception_module/separable_conv1_depthwise/depthwise_weights", "op": "Const", "attr": {"value": {"tensor": {"dtype": "DT_FLOAT", "tensorShape": {"dim": [{"size": "3"}, {"size": "3"}, {"size": "64"}, {"size": "1"}]}}}, "dtype": {"type": "DT_FLOAT"}}}, {"name": "xception_65/entry_flow/block1/unit_1/xception_module/separable_conv1_depthwise/depthwise_bn_offset", "op": "Const", "attr": {"dtype": {"type": "DT_FLOAT"}, "value": {"tensor": {"dtype": "DT_FLOAT", "tensorShape": {"dim": [{"size": "64"}]}}}}}, {"name": "xception_65/entry_flow/block1/unit_1/xception_module/separable_conv1_pointwise/Conv2D_weights", "op": "Const", "attr": {"value": {"tensor": {"dtype": "DT_FLOAT", "tensorShape": {"dim": [{"size": "1"}, {"size": "1"}, {"size": "64"}, {"size": "128"}]}}}, "dtype": {"type": "DT_FLOAT"}}}, {"name": "xception_65/middle_flow/block1/unit_7/xception_module/separable_conv1_depthwise/BatchNorm/FusedBatchNorm/Offset", "op": "Const", "attr": {"value": {"tensor": {"dtype": "DT_FLOAT", "tensorShape": {"dim": [{"size": "728"}]}}}, "dtype": {"type": "DT_FLOAT"}}}, {"name": "xception_65/entry_flow/block1/unit_1/xception_module/separable_conv1_pointwise/Conv2D_bn_offset", "op": "Const", "attr": {"dtype": {"type": "DT_FLOAT"}, "value": {"tensor": {"dtype": "DT_FLOAT", "tensorShape": {"dim": [{"size": "128"}]}}}}}, {"name": "xception_65/entry_flow/block1/unit_1/xception_module/separable_conv2_depthwise/depthwise_weights", "op": "Const", "attr": {"value": {"tensor": {"dtype": "DT_FLOAT", "tensorShape": {"dim": [{"size": "3"}, {"size": "3"}, {"size": "128"}, {"size": "1"}]}}}, "dtype": {"type": "DT_FLOAT"}}}, {"name": "xception_65/entry_flow/block1/unit_1/xception_module/separable_conv2_depthwise/depthwise_bn_offset", "op": "Const", "attr": {"dtype": {"type": "DT_FLOAT"}, "value": {"tensor": {"dtype": "DT_FLOAT", "tensorShape": {"dim": [{"size": "128"}]}}}}}, {"name": "xception_65/entry_flow/block1/unit_1/xception_module/separable_conv2_pointwise/Conv2D_weights", "op": "Const", "attr": {"value": {"tensor": {"dtype": "DT_FLOAT", "tensorShape": {"dim": [{"size": "1"}, {"size": "1"}, {"size": "128"}, {"size": "128"}]}}}, "dtype": {"type": "DT_FLOAT"}}}, {"name": "xception_65/entry_flow/block1/unit_1/xception_module/separable_conv2_pointwise/Conv2D_bn_offset", "op": "Const", "attr": {"value": {"tensor": {"dtype": "DT_FLOAT", "tensorShape": {"dim": [{"size": "128"}]}}}, "dtype": {"type": "DT_FLOAT"}}}, {"name": "xception_65/entry_flow/block1/unit_1/xception_module/separable_conv3_depthwise/depthwise_weights", "op": "Const", "attr": {"value": {"tensor": {"dtype": "DT_FLOAT", "tensorShape": {"dim": [{"size": "3"}, {"size": "3"}, {"size": "128"}, {"size": "1"}]}}}, "dtype": {"type": "DT_FLOAT"}}}, {"name": "xception_65/entry_flow/block1/unit_1/xception_module/separable_conv3_depthwise/depthwise_bn_offset", "op": "Const", "attr": {"dtype": {"type": "DT_FLOAT"}, "value": {"tensor": {"dtype": "DT_FLOAT", "tensorShape": {"dim": [{"size": "128"}]}}}}}, {"name": "xception_65/entry_flow/block1/unit_1/xception_module/separable_conv3_pointwise/Conv2D_weights", "op": "Const", "attr": {"value": {"tensor": {"dtype": "DT_FLOAT", "tensorShape": {"dim": [{"size": "1"}, {"size": "1"}, {"size": "128"}, {"size": "128"}]}}}, "dtype": {"type": "DT_FLOAT"}}}, {"name": "xception_65/middle_flow/block1/unit_6/xception_module/separable_conv3_depthwise/BatchNorm/FusedBatchNorm/Scaled", "op": "Const", "attr": {"dtype": {"type": "DT_FLOAT"}, "value": {"tensor": {"dtype": "DT_FLOAT", "tensorShape": {"dim": [{"size": "728"}]}}}}}, {"name": "xception_65/entry_flow/block1/unit_1/xception_module/separable_conv3_pointwise/Conv2D_bn_offset", "op": "Const", "attr": {"value": {"tensor": {"dtype": "DT_FLOAT", "tensorShape": {"dim": [{"size": "128"}]}}}, "dtype": {"type": "DT_FLOAT"}}}, {"name": "xception_65/entry_flow/block2/unit_1/xception_module/shortcut/Conv2D_weights", "op": "Const", "attr": {"dtype": {"type": "DT_FLOAT"}, "value": {"tensor": {"dtype": "DT_FLOAT", "tensorShape": {"dim": [{"size": "1"}, {"size": "1"}, {"size": "128"}, {"size": "256"}]}}}}}, {"name": "xception_65/entry_flow/block2/unit_1/xception_module/shortcut/Conv2D_bn_offset", "op": "Const", "attr": {"dtype": {"type": "DT_FLOAT"}, "value": {"tensor": {"dtype": "DT_FLOAT", "tensorShape": {"dim": [{"size": "256"}]}}}}}, {"name": "xception_65/entry_flow/block2/unit_1/xception_module/separable_conv1_depthwise/depthwise_weights", "op": "Const", "attr": {"dtype": {"type": "DT_FLOAT"}, "value": {"tensor": {"dtype": "DT_FLOAT", "tensorShape": {"dim": [{"size": "3"}, {"size": "3"}, {"size": "128"}, {"size": "1"}]}}}}}, {"name": "xception_65/entry_flow/block2/unit_1/xception_module/separable_conv1_depthwise/depthwise_bn_offset", "op": "Const", "attr": {"dtype": {"type": "DT_FLOAT"}, "value": {"tensor": {"dtype": "DT_FLOAT", "tensorShape": {"dim": [{"size": "128"}]}}}}}, {"name": "xception_65/entry_flow/block2/unit_1/xception_module/separable_conv1_pointwise/Conv2D_weights", "op": "Const", "attr": {"dtype": {"type": "DT_FLOAT"}, "value": {"tensor": {"dtype": "DT_FLOAT", "tensorShape": {"dim": [{"size": "1"}, {"size": "1"}, {"size": "128"}, {"size": "256"}]}}}}}, {"name": "xception_65/entry_flow/block2/unit_1/xception_module/separable_conv1_pointwise/Conv2D_bn_offset", "op": "Const", "attr": {"value": {"tensor": {"dtype": "DT_FLOAT", "tensorShape": {"dim": [{"size": "256"}]}}}, "dtype": {"type": "DT_FLOAT"}}}, {"name": "xception_65/middle_flow/block1/unit_6/xception_module/separable_conv3_depthwise/BatchNorm/FusedBatchNorm/Offset", "op": "Const", "attr": {"value": {"tensor": {"dtype": "DT_FLOAT", "tensorShape": {"dim": [{"size": "728"}]}}}, "dtype": {"type": "DT_FLOAT"}}}, {"name": "xception_65/entry_flow/block2/unit_1/xception_module/separable_conv2_depthwise/depthwise_weights", "op": "Const", "attr": {"value": {"tensor": {"dtype": "DT_FLOAT", "tensorShape": {"dim": [{"size": "3"}, {"size": "3"}, {"size": "256"}, {"size": "1"}]}}}, "dtype": {"type": "DT_FLOAT"}}}, {"name": "xception_65/entry_flow/block2/unit_1/xception_module/separable_conv2_depthwise/depthwise_bn_offset", "op": "Const", "attr": {"dtype": {"type": "DT_FLOAT"}, "value": {"tensor": {"dtype": "DT_FLOAT", "tensorShape": {"dim": [{"size": "256"}]}}}}}, {"name": "xception_65/entry_flow/block2/unit_1/xception_module/separable_conv2_pointwise/Conv2D_weights", "op": "Const", "attr": {"value": {"tensor": {"dtype": "DT_FLOAT", "tensorShape": {"dim": [{"size": "1"}, {"size": "1"}, {"size": "256"}, {"size": "256"}]}}}, "dtype": {"type": "DT_FLOAT"}}}, {"name": "xception_65/entry_flow/block2/unit_1/xception_module/separable_conv2_pointwise/Conv2D_bn_offset", "op": "Const", "attr": {"value": {"tensor": {"dtype": "DT_FLOAT", "tensorShape": {"dim": [{"size": "256"}]}}}, "dtype": {"type": "DT_FLOAT"}}}, {"name": "decoder/feature_projection0/Conv2D_weights", "op": "Const", "attr": {"value": {"tensor": {"dtype": "DT_FLOAT", "tensorShape": {"dim": [{"size": "1"}, {"size": "1"}, {"size": "256"}, {"size": "48"}]}}}, "dtype": {"type": "DT_FLOAT"}}}, {"name": "decoder/feature_projection0/Conv2D_bn_offset", "op": "Const", "attr": {"dtype": {"type": "DT_FLOAT"}, "value": {"tensor": {"dtype": "DT_FLOAT", "tensorShape": {"dim": [{"size": "48"}]}}}}}, {"name": "xception_65/entry_flow/block2/unit_1/xception_module/separable_conv3_depthwise/depthwise_weights", "op": "Const", "attr": {"value": {"tensor": {"dtype": "DT_FLOAT", "tensorShape": {"dim": [{"size": "3"}, {"size": "3"}, {"size": "256"}, {"size": "1"}]}}}, "dtype": {"type": "DT_FLOAT"}}}, {"name": "xception_65/entry_flow/block2/unit_1/xception_module/separable_conv3_depthwise/depthwise_bn_offset", "op": "Const", "attr": {"value": {"tensor": {"dtype": "DT_FLOAT", "tensorShape": {"dim": [{"size": "256"}]}}}, "dtype": {"type": "DT_FLOAT"}}}, {"name": "xception_65/entry_flow/block2/unit_1/xception_module/separable_conv3_pointwise/Conv2D_weights", "op": "Const", "attr": {"dtype": {"type": "DT_FLOAT"}, "value": {"tensor": {"dtype": "DT_FLOAT", "tensorShape": {"dim": [{"size": "1"}, {"size": "1"}, {"size": "256"}, {"size": "256"}]}}}}}, {"name": "xception_65/middle_flow/block1/unit_6/xception_module/separable_conv2_depthwise/BatchNorm/FusedBatchNorm/Scaled", "op": "Const", "attr": {"value": {"tensor": {"dtype": "DT_FLOAT", "tensorShape": {"dim": [{"size": "728"}]}}}, "dtype": {"type": "DT_FLOAT"}}}, {"name": "xception_65/entry_flow/block2/unit_1/xception_module/separable_conv3_pointwise/Conv2D_bn_offset", "op": "Const", "attr": {"dtype": {"type": "DT_FLOAT"}, "value": {"tensor": {"dtype": "DT_FLOAT", "tensorShape": {"dim": [{"size": "256"}]}}}}}, {"name": "xception_65/entry_flow/block3/unit_1/xception_module/shortcut/Conv2D_weights", "op": "Const", "attr": {"value": {"tensor": {"dtype": "DT_FLOAT", "tensorShape": {"dim": [{"size": "1"}, {"size": "1"}, {"size": "256"}, {"size": "728"}]}}}, "dtype": {"type": "DT_FLOAT"}}}, {"name": "xception_65/entry_flow/block3/unit_1/xception_module/shortcut/Conv2D_bn_offset", "op": "Const", "attr": {"dtype": {"type": "DT_FLOAT"}, "value": {"tensor": {"dtype": "DT_FLOAT", "tensorShape": {"dim": [{"size": "728"}]}}}}}, {"name": "xception_65/entry_flow/block3/unit_1/xception_module/separable_conv1_depthwise/depthwise_weights", "op": "Const", "attr": {"value": {"tensor": {"dtype": "DT_FLOAT", "tensorShape": {"dim": [{"size": "3"}, {"size": "3"}, {"size": "256"}, {"size": "1"}]}}}, "dtype": {"type": "DT_FLOAT"}}}, {"name": "xception_65/entry_flow/block3/unit_1/xception_module/separable_conv1_depthwise/depthwise_bn_offset", "op": "Const", "attr": {"value": {"tensor": {"dtype": "DT_FLOAT", "tensorShape": {"dim": [{"size": "256"}]}}}, "dtype": {"type": "DT_FLOAT"}}}, {"name": "xception_65/entry_flow/block3/unit_1/xception_module/separable_conv1_pointwise/Conv2D_weights", "op": "Const", "attr": {"dtype": {"type": "DT_FLOAT"}, "value": {"tensor": {"dtype": "DT_FLOAT", "tensorShape": {"dim": [{"size": "1"}, {"size": "1"}, {"size": "256"}, {"size": "728"}]}}}}}, {"name": "xception_65/entry_flow/block3/unit_1/xception_module/separable_conv1_pointwise/Conv2D_bn_offset", "op": "Const", "attr": {"value": {"tensor": {"dtype": "DT_FLOAT", "tensorShape": {"dim": [{"size": "728"}]}}}, "dtype": {"type": "DT_FLOAT"}}}, {"name": "xception_65/middle_flow/block1/unit_6/xception_module/separable_conv2_depthwise/BatchNorm/FusedBatchNorm/Offset", "op": "Const", "attr": {"dtype": {"type": "DT_FLOAT"}, "value": {"tensor": {"dtype": "DT_FLOAT", "tensorShape": {"dim": [{"size": "728"}]}}}}}, {"name": "xception_65/entry_flow/block3/unit_1/xception_module/separable_conv2_depthwise/depthwise_weights", "op": "Const", "attr": {"value": {"tensor": {"dtype": "DT_FLOAT", "tensorShape": {"dim": [{"size": "3"}, {"size": "3"}, {"size": "728"}, {"size": "1"}]}}}, "dtype": {"type": "DT_FLOAT"}}}, {"name": "xception_65/entry_flow/block3/unit_1/xception_module/separable_conv2_depthwise/depthwise_bn_offset", "op": "Const", "attr": {"value": {"tensor": {"dtype": "DT_FLOAT", "tensorShape": {"dim": [{"size": "728"}]}}}, "dtype": {"type": "DT_FLOAT"}}}, {"name": "xception_65/entry_flow/block3/unit_1/xception_module/separable_conv2_pointwise/Conv2D_weights", "op": "Const", "attr": {"value": {"tensor": {"dtype": "DT_FLOAT", "tensorShape": {"dim": [{"size": "1"}, {"size": "1"}, {"size": "728"}, {"size": "728"}]}}}, "dtype": {"type": "DT_FLOAT"}}}, {"name": "xception_65/entry_flow/block3/unit_1/xception_module/separable_conv2_pointwise/Conv2D_bn_offset", "op": "Const", "attr": {"value": {"tensor": {"dtype": "DT_FLOAT", "tensorShape": {"dim": [{"size": "728"}]}}}, "dtype": {"type": "DT_FLOAT"}}}, {"name": "xception_65/entry_flow/block3/unit_1/xception_module/separable_conv3_depthwise/depthwise_weights", "op": "Const", "attr": {"value": {"tensor": {"dtype": "DT_FLOAT", "tensorShape": {"dim": [{"size": "3"}, {"size": "3"}, {"size": "728"}, {"size": "1"}]}}}, "dtype": {"type": "DT_FLOAT"}}}, {"name": "xception_65/entry_flow/block3/unit_1/xception_module/separable_conv3_depthwise/depthwise_bn_offset", "op": "Const", "attr": {"dtype": {"type": "DT_FLOAT"}, "value": {"tensor": {"dtype": "DT_FLOAT", "tensorShape": {"dim": [{"size": "728"}]}}}}}, {"name": "xception_65/entry_flow/block3/unit_1/xception_module/separable_conv3_pointwise/Conv2D_weights", "op": "Const", "attr": {"value": {"tensor": {"dtype": "DT_FLOAT", "tensorShape": {"dim": [{"size": "1"}, {"size": "1"}, {"size": "728"}, {"size": "728"}]}}}, "dtype": {"type": "DT_FLOAT"}}}, {"name": "xception_65/entry_flow/block3/unit_1/xception_module/separable_conv3_pointwise/Conv2D_bn_offset", "op": "Const", "attr": {"dtype": {"type": "DT_FLOAT"}, "value": {"tensor": {"dtype": "DT_FLOAT", "tensorShape": {"dim": [{"size": "728"}]}}}}}, {"name": "xception_65/middle_flow/block1/unit_1/xception_module/separable_conv1_pointwise/Conv2D_weights", "op": "Const", "attr": {"value": {"tensor": {"dtype": "DT_FLOAT", "tensorShape": {"dim": [{"size": "1"}, {"size": "1"}, {"size": "728"}, {"size": "728"}]}}}, "dtype": {"type": "DT_FLOAT"}}}, {"name": "xception_65/middle_flow/block1/unit_6/xception_module/separable_conv1_depthwise/BatchNorm/FusedBatchNorm/Scaled", "op": "Const", "attr": {"value": {"tensor": {"dtype": "DT_FLOAT", "tensorShape": {"dim": [{"size": "728"}]}}}, "dtype": {"type": "DT_FLOAT"}}}, {"name": "xception_65/middle_flow/block1/unit_1/xception_module/separable_conv1_pointwise/Conv2D_bn_offset", "op": "Const", "attr": {"value": {"tensor": {"dtype": "DT_FLOAT", "tensorShape": {"dim": [{"size": "728"}]}}}, "dtype": {"type": "DT_FLOAT"}}}, {"name": "xception_65/middle_flow/block1/unit_1/xception_module/separable_conv2_pointwise/Conv2D_weights", "op": "Const", "attr": {"dtype": {"type": "DT_FLOAT"}, "value": {"tensor": {"dtype": "DT_FLOAT", "tensorShape": {"dim": [{"size": "1"}, {"size": "1"}, {"size": "728"}, {"size": "728"}]}}}}}, {"name": "xception_65/middle_flow/block1/unit_1/xception_module/separable_conv2_pointwise/Conv2D_bn_offset", "op": "Const", "attr": {"dtype": {"type": "DT_FLOAT"}, "value": {"tensor": {"dtype": "DT_FLOAT", "tensorShape": {"dim": [{"size": "728"}]}}}}}, {"name": "xception_65/middle_flow/block1/unit_6/xception_module/separable_conv1_depthwise/BatchNorm/FusedBatchNorm/Offset", "op": "Const", "attr": {"dtype": {"type": "DT_FLOAT"}, "value": {"tensor": {"dtype": "DT_FLOAT", "tensorShape": {"dim": [{"size": "728"}]}}}}}, {"name": "xception_65/middle_flow/block1/unit_1/xception_module/separable_conv3_pointwise/Conv2D_weights", "op": "Const", "attr": {"dtype": {"type": "DT_FLOAT"}, "value": {"tensor": {"dtype": "DT_FLOAT", "tensorShape": {"dim": [{"size": "1"}, {"size": "1"}, {"size": "728"}, {"size": "728"}]}}}}}, {"name": "xception_65/middle_flow/block1/unit_1/xception_module/separable_conv3_pointwise/Conv2D_bn_offset", "op": "Const", "attr": {"value": {"tensor": {"dtype": "DT_FLOAT", "tensorShape": {"dim": [{"size": "728"}]}}}, "dtype": {"type": "DT_FLOAT"}}}, {"name": "xception_65/middle_flow/block1/unit_2/xception_module/separable_conv1_pointwise/Conv2D_weights", "op": "Const", "attr": {"value": {"tensor": {"dtype": "DT_FLOAT", "tensorShape": {"dim": [{"size": "1"}, {"size": "1"}, {"size": "728"}, {"size": "728"}]}}}, "dtype": {"type": "DT_FLOAT"}}}, {"name": "xception_65/middle_flow/block1/unit_2/xception_module/separable_conv1_pointwise/Conv2D_bn_offset", "op": "Const", "attr": {"dtype": {"type": "DT_FLOAT"}, "value": {"tensor": {"dtype": "DT_FLOAT", "tensorShape": {"dim": [{"size": "728"}]}}}}}, {"name": "xception_65/middle_flow/block1/unit_2/xception_module/separable_conv2_pointwise/Conv2D_weights", "op": "Const", "attr": {"dtype": {"type": "DT_FLOAT"}, "value": {"tensor": {"dtype": "DT_FLOAT", "tensorShape": {"dim": [{"size": "1"}, {"size": "1"}, {"size": "728"}, {"size": "728"}]}}}}}, {"name": "xception_65/middle_flow/block1/unit_5/xception_module/separable_conv3_depthwise/BatchNorm/FusedBatchNorm/Scaled", "op": "Const", "attr": {"dtype": {"type": "DT_FLOAT"}, "value": {"tensor": {"dtype": "DT_FLOAT", "tensorShape": {"dim": [{"size": "728"}]}}}}}, {"name": "xception_65/middle_flow/block1/unit_2/xception_module/separable_conv2_pointwise/Conv2D_bn_offset", "op": "Const", "attr": {"dtype": {"type": "DT_FLOAT"}, "value": {"tensor": {"dtype": "DT_FLOAT", "tensorShape": {"dim": [{"size": "728"}]}}}}}, {"name": "xception_65/middle_flow/block1/unit_2/xception_module/separable_conv3_pointwise/Conv2D_weights", "op": "Const", "attr": {"value": {"tensor": {"dtype": "DT_FLOAT", "tensorShape": {"dim": [{"size": "1"}, {"size": "1"}, {"size": "728"}, {"size": "728"}]}}}, "dtype": {"type": "DT_FLOAT"}}}, {"name": "xception_65/middle_flow/block1/unit_2/xception_module/separable_conv3_pointwise/Conv2D_bn_offset", "op": "Const", "attr": {"dtype": {"type": "DT_FLOAT"}, "value": {"tensor": {"dtype": "DT_FLOAT", "tensorShape": {"dim": [{"size": "728"}]}}}}}, {"name": "xception_65/middle_flow/block1/unit_3/xception_module/separable_conv1_pointwise/Conv2D_weights", "op": "Const", "attr": {"value": {"tensor": {"dtype": "DT_FLOAT", "tensorShape": {"dim": [{"size": "1"}, {"size": "1"}, {"size": "728"}, {"size": "728"}]}}}, "dtype": {"type": "DT_FLOAT"}}}, {"name": "xception_65/middle_flow/block1/unit_5/xception_module/separable_conv3_depthwise/BatchNorm/FusedBatchNorm/Offset", "op": "Const", "attr": {"dtype": {"type": "DT_FLOAT"}, "value": {"tensor": {"dtype": "DT_FLOAT", "tensorShape": {"dim": [{"size": "728"}]}}}}}, {"name": "xception_65/middle_flow/block1/unit_3/xception_module/separable_conv1_pointwise/Conv2D_bn_offset", "op": "Const", "attr": {"dtype": {"type": "DT_FLOAT"}, "value": {"tensor": {"dtype": "DT_FLOAT", "tensorShape": {"dim": [{"size": "728"}]}}}}}, {"name": "xception_65/middle_flow/block1/unit_3/xception_module/separable_conv2_pointwise/Conv2D_weights", "op": "Const", "attr": {"dtype": {"type": "DT_FLOAT"}, "value": {"tensor": {"dtype": "DT_FLOAT", "tensorShape": {"dim": [{"size": "1"}, {"size": "1"}, {"size": "728"}, {"size": "728"}]}}}}}, {"name": "xception_65/middle_flow/block1/unit_3/xception_module/separable_conv2_pointwise/Conv2D_bn_offset", "op": "Const", "attr": {"value": {"tensor": {"dtype": "DT_FLOAT", "tensorShape": {"dim": [{"size": "728"}]}}}, "dtype": {"type": "DT_FLOAT"}}}, {"name": "xception_65/middle_flow/block1/unit_3/xception_module/separable_conv3_pointwise/Conv2D_weights", "op": "Const", "attr": {"dtype": {"type": "DT_FLOAT"}, "value": {"tensor": {"dtype": "DT_FLOAT", "tensorShape": {"dim": [{"size": "1"}, {"size": "1"}, {"size": "728"}, {"size": "728"}]}}}}}, {"name": "xception_65/middle_flow/block1/unit_5/xception_module/separable_conv2_depthwise/BatchNorm/FusedBatchNorm/Scaled", "op": "Const", "attr": {"value": {"tensor": {"dtype": "DT_FLOAT", "tensorShape": {"dim": [{"size": "728"}]}}}, "dtype": {"type": "DT_FLOAT"}}}, {"name": "xception_65/middle_flow/block1/unit_3/xception_module/separable_conv3_pointwise/Conv2D_bn_offset", "op": "Const", "attr": {"dtype": {"type": "DT_FLOAT"}, "value": {"tensor": {"dtype": "DT_FLOAT", "tensorShape": {"dim": [{"size": "728"}]}}}}}, {"name": "xception_65/middle_flow/block1/unit_4/xception_module/separable_conv1_pointwise/Conv2D_weights", "op": "Const", "attr": {"value": {"tensor": {"dtype": "DT_FLOAT", "tensorShape": {"dim": [{"size": "1"}, {"size": "1"}, {"size": "728"}, {"size": "728"}]}}}, "dtype": {"type": "DT_FLOAT"}}}, {"name": "xception_65/middle_flow/block1/unit_4/xception_module/separable_conv1_pointwise/Conv2D_bn_offset", "op": "Const", "attr": {"value": {"tensor": {"dtype": "DT_FLOAT", "tensorShape": {"dim": [{"size": "728"}]}}}, "dtype": {"type": "DT_FLOAT"}}}, {"name": "xception_65/middle_flow/block1/unit_4/xception_module/separable_conv2_pointwise/Conv2D_weights", "op": "Const", "attr": {"value": {"tensor": {"dtype": "DT_FLOAT", "tensorShape": {"dim": [{"size": "1"}, {"size": "1"}, {"size": "728"}, {"size": "728"}]}}}, "dtype": {"type": "DT_FLOAT"}}}, {"name": "xception_65/middle_flow/block1/unit_5/xception_module/separable_conv2_depthwise/BatchNorm/FusedBatchNorm/Offset", "op": "Const", "attr": {"dtype": {"type": "DT_FLOAT"}, "value": {"tensor": {"dtype": "DT_FLOAT", "tensorShape": {"dim": [{"size": "728"}]}}}}}, {"name": "xception_65/middle_flow/block1/unit_4/xception_module/separable_conv2_pointwise/Conv2D_bn_offset", "op": "Const", "attr": {"dtype": {"type": "DT_FLOAT"}, "value": {"tensor": {"dtype": "DT_FLOAT", "tensorShape": {"dim": [{"size": "728"}]}}}}}, {"name": "xception_65/middle_flow/block1/unit_4/xception_module/separable_conv3_pointwise/Conv2D_weights", "op": "Const", "attr": {"dtype": {"type": "DT_FLOAT"}, "value": {"tensor": {"dtype": "DT_FLOAT", "tensorShape": {"dim": [{"size": "1"}, {"size": "1"}, {"size": "728"}, {"size": "728"}]}}}}}, {"name": "xception_65/middle_flow/block1/unit_4/xception_module/separable_conv3_pointwise/Conv2D_bn_offset", "op": "Const", "attr": {"dtype": {"type": "DT_FLOAT"}, "value": {"tensor": {"dtype": "DT_FLOAT", "tensorShape": {"dim": [{"size": "728"}]}}}}}, {"name": "xception_65/middle_flow/block1/unit_5/xception_module/separable_conv1_pointwise/Conv2D_weights", "op": "Const", "attr": {"value": {"tensor": {"dtype": "DT_FLOAT", "tensorShape": {"dim": [{"size": "1"}, {"size": "1"}, {"size": "728"}, {"size": "728"}]}}}, "dtype": {"type": "DT_FLOAT"}}}, {"name": "xception_65/middle_flow/block1/unit_5/xception_module/separable_conv1_pointwise/Conv2D_bn_offset", "op": "Const", "attr": {"dtype": {"type": "DT_FLOAT"}, "value": {"tensor": {"dtype": "DT_FLOAT", "tensorShape": {"dim": [{"size": "728"}]}}}}}, {"name": "xception_65/middle_flow/block1/unit_5/xception_module/separable_conv1_depthwise/BatchNorm/FusedBatchNorm/Scaled", "op": "Const", "attr": {"value": {"tensor": {"dtype": "DT_FLOAT", "tensorShape": {"dim": [{"size": "728"}]}}}, "dtype": {"type": "DT_FLOAT"}}}, {"name": "xception_65/middle_flow/block1/unit_5/xception_module/separable_conv2_pointwise/Conv2D_weights", "op": "Const", "attr": {"dtype": {"type": "DT_FLOAT"}, "value": {"tensor": {"dtype": "DT_FLOAT", "tensorShape": {"dim": [{"size": "1"}, {"size": "1"}, {"size": "728"}, {"size": "728"}]}}}}}, {"name": "xception_65/middle_flow/block1/unit_5/xception_module/separable_conv2_pointwise/Conv2D_bn_offset", "op": "Const", "attr": {"value": {"tensor": {"dtype": "DT_FLOAT", "tensorShape": {"dim": [{"size": "728"}]}}}, "dtype": {"type": "DT_FLOAT"}}}, {"name": "xception_65/middle_flow/block1/unit_5/xception_module/separable_conv3_pointwise/Conv2D_weights", "op": "Const", "attr": {"dtype": {"type": "DT_FLOAT"}, "value": {"tensor": {"dtype": "DT_FLOAT", "tensorShape": {"dim": [{"size": "1"}, {"size": "1"}, {"size": "728"}, {"size": "728"}]}}}}}, {"name": "xception_65/middle_flow/block1/unit_5/xception_module/separable_conv1_depthwise/BatchNorm/FusedBatchNorm/Offset", "op": "Const", "attr": {"dtype": {"type": "DT_FLOAT"}, "value": {"tensor": {"dtype": "DT_FLOAT", "tensorShape": {"dim": [{"size": "728"}]}}}}}, {"name": "xception_65/middle_flow/block1/unit_5/xception_module/separable_conv3_pointwise/Conv2D_bn_offset", "op": "Const", "attr": {"dtype": {"type": "DT_FLOAT"}, "value": {"tensor": {"dtype": "DT_FLOAT", "tensorShape": {"dim": [{"size": "728"}]}}}}}, {"name": "xception_65/middle_flow/block1/unit_6/xception_module/separable_conv1_pointwise/Conv2D_weights", "op": "Const", "attr": {"dtype": {"type": "DT_FLOAT"}, "value": {"tensor": {"dtype": "DT_FLOAT", "tensorShape": {"dim": [{"size": "1"}, {"size": "1"}, {"size": "728"}, {"size": "728"}]}}}}}, {"name": "xception_65/middle_flow/block1/unit_6/xception_module/separable_conv1_pointwise/Conv2D_bn_offset", "op": "Const", "attr": {"dtype": {"type": "DT_FLOAT"}, "value": {"tensor": {"dtype": "DT_FLOAT", "tensorShape": {"dim": [{"size": "728"}]}}}}}, {"name": "xception_65/middle_flow/block1/unit_6/xception_module/separable_conv2_pointwise/Conv2D_weights", "op": "Const", "attr": {"dtype": {"type": "DT_FLOAT"}, "value": {"tensor": {"dtype": "DT_FLOAT", "tensorShape": {"dim": [{"size": "1"}, {"size": "1"}, {"size": "728"}, {"size": "728"}]}}}}}, {"name": "xception_65/middle_flow/block1/unit_6/xception_module/separable_conv2_pointwise/Conv2D_bn_offset", "op": "Const", "attr": {"dtype": {"type": "DT_FLOAT"}, "value": {"tensor": {"dtype": "DT_FLOAT", "tensorShape": {"dim": [{"size": "728"}]}}}}}, {"name": "xception_65/middle_flow/block1/unit_4/xception_module/separable_conv3_depthwise/BatchNorm/FusedBatchNorm/Scaled", "op": "Const", "attr": {"value": {"tensor": {"dtype": "DT_FLOAT", "tensorShape": {"dim": [{"size": "728"}]}}}, "dtype": {"type": "DT_FLOAT"}}}, {"name": "xception_65/middle_flow/block1/unit_6/xception_module/separable_conv3_pointwise/Conv2D_weights", "op": "Const", "attr": {"dtype": {"type": "DT_FLOAT"}, "value": {"tensor": {"dtype": "DT_FLOAT", "tensorShape": {"dim": [{"size": "1"}, {"size": "1"}, {"size": "728"}, {"size": "728"}]}}}}}, {"name": "xception_65/middle_flow/block1/unit_6/xception_module/separable_conv3_pointwise/Conv2D_bn_offset", "op": "Const", "attr": {"dtype": {"type": "DT_FLOAT"}, "value": {"tensor": {"dtype": "DT_FLOAT", "tensorShape": {"dim": [{"size": "728"}]}}}}}, {"name": "xception_65/middle_flow/block1/unit_7/xception_module/separable_conv1_pointwise/Conv2D_weights", "op": "Const", "attr": {"value": {"tensor": {"dtype": "DT_FLOAT", "tensorShape": {"dim": [{"size": "1"}, {"size": "1"}, {"size": "728"}, {"size": "728"}]}}}, "dtype": {"type": "DT_FLOAT"}}}, {"name": "xception_65/middle_flow/block1/unit_7/xception_module/separable_conv1_pointwise/Conv2D_bn_offset", "op": "Const", "attr": {"dtype": {"type": "DT_FLOAT"}, "value": {"tensor": {"dtype": "DT_FLOAT", "tensorShape": {"dim": [{"size": "728"}]}}}}}, {"name": "xception_65/middle_flow/block1/unit_4/xception_module/separable_conv3_depthwise/BatchNorm/FusedBatchNorm/Offset", "op": "Const", "attr": {"value": {"tensor": {"dtype": "DT_FLOAT", "tensorShape": {"dim": [{"size": "728"}]}}}, "dtype": {"type": "DT_FLOAT"}}}, {"name": "xception_65/middle_flow/block1/unit_7/xception_module/separable_conv2_pointwise/Conv2D_weights", "op": "Const", "attr": {"value": {"tensor": {"dtype": "DT_FLOAT", "tensorShape": {"dim": [{"size": "1"}, {"size": "1"}, {"size": "728"}, {"size": "728"}]}}}, "dtype": {"type": "DT_FLOAT"}}}, {"name": "xception_65/middle_flow/block1/unit_7/xception_module/separable_conv2_pointwise/Conv2D_bn_offset", "op": "Const", "attr": {"dtype": {"type": "DT_FLOAT"}, "value": {"tensor": {"dtype": "DT_FLOAT", "tensorShape": {"dim": [{"size": "728"}]}}}}}, {"name": "xception_65/middle_flow/block1/unit_7/xception_module/separable_conv3_pointwise/Conv2D_weights", "op": "Const", "attr": {"value": {"tensor": {"dtype": "DT_FLOAT", "tensorShape": {"dim": [{"size": "1"}, {"size": "1"}, {"size": "728"}, {"size": "728"}]}}}, "dtype": {"type": "DT_FLOAT"}}}, {"name": "xception_65/middle_flow/block1/unit_7/xception_module/separable_conv3_pointwise/Conv2D_bn_offset", "op": "Const", "attr": {"dtype": {"type": "DT_FLOAT"}, "value": {"tensor": {"dtype": "DT_FLOAT", "tensorShape": {"dim": [{"size": "728"}]}}}}}, {"name": "xception_65/middle_flow/block1/unit_8/xception_module/separable_conv1_pointwise/Conv2D_weights", "op": "Const", "attr": {"value": {"tensor": {"dtype": "DT_FLOAT", "tensorShape": {"dim": [{"size": "1"}, {"size": "1"}, {"size": "728"}, {"size": "728"}]}}}, "dtype": {"type": "DT_FLOAT"}}}, {"name": "xception_65/middle_flow/block1/unit_4/xception_module/separable_conv2_depthwise/BatchNorm/FusedBatchNorm/Scaled", "op": "Const", "attr": {"value": {"tensor": {"dtype": "DT_FLOAT", "tensorShape": {"dim": [{"size": "728"}]}}}, "dtype": {"type": "DT_FLOAT"}}}, {"name": "xception_65/middle_flow/block1/unit_8/xception_module/separable_conv1_pointwise/Conv2D_bn_offset", "op": "Const", "attr": {"dtype": {"type": "DT_FLOAT"}, "value": {"tensor": {"dtype": "DT_FLOAT", "tensorShape": {"dim": [{"size": "728"}]}}}}}, {"name": "xception_65/middle_flow/block1/unit_8/xception_module/separable_conv2_pointwise/Conv2D_weights", "op": "Const", "attr": {"dtype": {"type": "DT_FLOAT"}, "value": {"tensor": {"dtype": "DT_FLOAT", "tensorShape": {"dim": [{"size": "1"}, {"size": "1"}, {"size": "728"}, {"size": "728"}]}}}}}, {"name": "xception_65/middle_flow/block1/unit_8/xception_module/separable_conv2_pointwise/Conv2D_bn_offset", "op": "Const", "attr": {"value": {"tensor": {"dtype": "DT_FLOAT", "tensorShape": {"dim": [{"size": "728"}]}}}, "dtype": {"type": "DT_FLOAT"}}}, {"name": "xception_65/middle_flow/block1/unit_4/xception_module/separable_conv2_depthwise/BatchNorm/FusedBatchNorm/Offset", "op": "Const", "attr": {"dtype": {"type": "DT_FLOAT"}, "value": {"tensor": {"dtype": "DT_FLOAT", "tensorShape": {"dim": [{"size": "728"}]}}}}}, {"name": "xception_65/middle_flow/block1/unit_8/xception_module/separable_conv3_pointwise/Conv2D_weights", "op": "Const", "attr": {"dtype": {"type": "DT_FLOAT"}, "value": {"tensor": {"dtype": "DT_FLOAT", "tensorShape": {"dim": [{"size": "1"}, {"size": "1"}, {"size": "728"}, {"size": "728"}]}}}}}, {"name": "xception_65/middle_flow/block1/unit_8/xception_module/separable_conv3_pointwise/Conv2D_bn_offset", "op": "Const", "attr": {"dtype": {"type": "DT_FLOAT"}, "value": {"tensor": {"dtype": "DT_FLOAT", "tensorShape": {"dim": [{"size": "728"}]}}}}}, {"name": "xception_65/middle_flow/block1/unit_9/xception_module/separable_conv1_pointwise/Conv2D_weights", "op": "Const", "attr": {"dtype": {"type": "DT_FLOAT"}, "value": {"tensor": {"dtype": "DT_FLOAT", "tensorShape": {"dim": [{"size": "1"}, {"size": "1"}, {"size": "728"}, {"size": "728"}]}}}}}, {"name": "xception_65/middle_flow/block1/unit_9/xception_module/separable_conv1_pointwise/Conv2D_bn_offset", "op": "Const", "attr": {"dtype": {"type": "DT_FLOAT"}, "value": {"tensor": {"dtype": "DT_FLOAT", "tensorShape": {"dim": [{"size": "728"}]}}}}}, {"name": "xception_65/middle_flow/block1/unit_9/xception_module/separable_conv2_pointwise/Conv2D_weights", "op": "Const", "attr": {"dtype": {"type": "DT_FLOAT"}, "value": {"tensor": {"dtype": "DT_FLOAT", "tensorShape": {"dim": [{"size": "1"}, {"size": "1"}, {"size": "728"}, {"size": "728"}]}}}}}, {"name": "xception_65/middle_flow/block1/unit_4/xception_module/separable_conv1_depthwise/BatchNorm/FusedBatchNorm/Scaled", "op": "Const", "attr": {"value": {"tensor": {"dtype": "DT_FLOAT", "tensorShape": {"dim": [{"size": "728"}]}}}, "dtype": {"type": "DT_FLOAT"}}}, {"name": "xception_65/middle_flow/block1/unit_9/xception_module/separable_conv2_pointwise/Conv2D_bn_offset", "op": "Const", "attr": {"dtype": {"type": "DT_FLOAT"}, "value": {"tensor": {"dtype": "DT_FLOAT", "tensorShape": {"dim": [{"size": "728"}]}}}}}, {"name": "xception_65/middle_flow/block1/unit_9/xception_module/separable_conv3_pointwise/Conv2D_weights", "op": "Const", "attr": {"value": {"tensor": {"dtype": "DT_FLOAT", "tensorShape": {"dim": [{"size": "1"}, {"size": "1"}, {"size": "728"}, {"size": "728"}]}}}, "dtype": {"type": "DT_FLOAT"}}}, {"name": "xception_65/middle_flow/block1/unit_9/xception_module/separable_conv3_pointwise/Conv2D_bn_offset", "op": "Const", "attr": {"dtype": {"type": "DT_FLOAT"}, "value": {"tensor": {"dtype": "DT_FLOAT", "tensorShape": {"dim": [{"size": "728"}]}}}}}, {"name": "xception_65/middle_flow/block1/unit_10/xception_module/separable_conv1_pointwise/Conv2D_weights", "op": "Const", "attr": {"dtype": {"type": "DT_FLOAT"}, "value": {"tensor": {"dtype": "DT_FLOAT", "tensorShape": {"dim": [{"size": "1"}, {"size": "1"}, {"size": "728"}, {"size": "728"}]}}}}}, {"name": "xception_65/middle_flow/block1/unit_4/xception_module/separable_conv1_depthwise/BatchNorm/FusedBatchNorm/Offset", "op": "Const", "attr": {"dtype": {"type": "DT_FLOAT"}, "value": {"tensor": {"dtype": "DT_FLOAT", "tensorShape": {"dim": [{"size": "728"}]}}}}}, {"name": "xception_65/middle_flow/block1/unit_10/xception_module/separable_conv1_pointwise/Conv2D_bn_offset", "op": "Const", "attr": {"value": {"tensor": {"dtype": "DT_FLOAT", "tensorShape": {"dim": [{"size": "728"}]}}}, "dtype": {"type": "DT_FLOAT"}}}, {"name": "xception_65/middle_flow/block1/unit_10/xception_module/separable_conv2_pointwise/Conv2D_weights", "op": "Const", "attr": {"dtype": {"type": "DT_FLOAT"}, "value": {"tensor": {"dtype": "DT_FLOAT", "tensorShape": {"dim": [{"size": "1"}, {"size": "1"}, {"size": "728"}, {"size": "728"}]}}}}}, {"name": "xception_65/middle_flow/block1/unit_10/xception_module/separable_conv2_pointwise/Conv2D_bn_offset", "op": "Const", "attr": {"value": {"tensor": {"dtype": "DT_FLOAT", "tensorShape": {"dim": [{"size": "728"}]}}}, "dtype": {"type": "DT_FLOAT"}}}, {"name": "xception_65/middle_flow/block1/unit_10/xception_module/separable_conv3_pointwise/Conv2D_weights", "op": "Const", "attr": {"dtype": {"type": "DT_FLOAT"}, "value": {"tensor": {"dtype": "DT_FLOAT", "tensorShape": {"dim": [{"size": "1"}, {"size": "1"}, {"size": "728"}, {"size": "728"}]}}}}}, {"name": "xception_65/middle_flow/block1/unit_3/xception_module/separable_conv3_depthwise/BatchNorm/FusedBatchNorm/Scaled", "op": "Const", "attr": {"value": {"tensor": {"dtype": "DT_FLOAT", "tensorShape": {"dim": [{"size": "728"}]}}}, "dtype": {"type": "DT_FLOAT"}}}, {"name": "xception_65/middle_flow/block1/unit_10/xception_module/separable_conv3_pointwise/Conv2D_bn_offset", "op": "Const", "attr": {"value": {"tensor": {"dtype": "DT_FLOAT", "tensorShape": {"dim": [{"size": "728"}]}}}, "dtype": {"type": "DT_FLOAT"}}}, {"name": "xception_65/middle_flow/block1/unit_11/xception_module/separable_conv1_pointwise/Conv2D_weights", "op": "Const", "attr": {"dtype": {"type": "DT_FLOAT"}, "value": {"tensor": {"dtype": "DT_FLOAT", "tensorShape": {"dim": [{"size": "1"}, {"size": "1"}, {"size": "728"}, {"size": "728"}]}}}}}, {"name": "xception_65/middle_flow/block1/unit_11/xception_module/separable_conv1_pointwise/Conv2D_bn_offset", "op": "Const", "attr": {"dtype": {"type": "DT_FLOAT"}, "value": {"tensor": {"dtype": "DT_FLOAT", "tensorShape": {"dim": [{"size": "728"}]}}}}}, {"name": "xception_65/middle_flow/block1/unit_11/xception_module/separable_conv2_pointwise/Conv2D_weights", "op": "Const", "attr": {"value": {"tensor": {"dtype": "DT_FLOAT", "tensorShape": {"dim": [{"size": "1"}, {"size": "1"}, {"size": "728"}, {"size": "728"}]}}}, "dtype": {"type": "DT_FLOAT"}}}, {"name": "xception_65/middle_flow/block1/unit_3/xception_module/separable_conv3_depthwise/BatchNorm/FusedBatchNorm/Offset", "op": "Const", "attr": {"dtype": {"type": "DT_FLOAT"}, "value": {"tensor": {"dtype": "DT_FLOAT", "tensorShape": {"dim": [{"size": "728"}]}}}}}, {"name": "xception_65/middle_flow/block1/unit_11/xception_module/separable_conv2_pointwise/Conv2D_bn_offset", "op": "Const", "attr": {"dtype": {"type": "DT_FLOAT"}, "value": {"tensor": {"dtype": "DT_FLOAT", "tensorShape": {"dim": [{"size": "728"}]}}}}}, {"name": "xception_65/middle_flow/block1/unit_11/xception_module/separable_conv3_pointwise/Conv2D_weights", "op": "Const", "attr": {"value": {"tensor": {"dtype": "DT_FLOAT", "tensorShape": {"dim": [{"size": "1"}, {"size": "1"}, {"size": "728"}, {"size": "728"}]}}}, "dtype": {"type": "DT_FLOAT"}}}, {"name": "xception_65/middle_flow/block1/unit_11/xception_module/separable_conv3_pointwise/Conv2D_bn_offset", "op": "Const", "attr": {"value": {"tensor": {"dtype": "DT_FLOAT", "tensorShape": {"dim": [{"size": "728"}]}}}, "dtype": {"type": "DT_FLOAT"}}}, {"name": "xception_65/middle_flow/block1/unit_12/xception_module/separable_conv1_pointwise/Conv2D_weights", "op": "Const", "attr": {"value": {"tensor": {"dtype": "DT_FLOAT", "tensorShape": {"dim": [{"size": "1"}, {"size": "1"}, {"size": "728"}, {"size": "728"}]}}}, "dtype": {"type": "DT_FLOAT"}}}, {"name": "xception_65/middle_flow/block1/unit_12/xception_module/separable_conv1_pointwise/Conv2D_bn_offset", "op": "Const", "attr": {"dtype": {"type": "DT_FLOAT"}, "value": {"tensor": {"dtype": "DT_FLOAT", "tensorShape": {"dim": [{"size": "728"}]}}}}}, {"name": "xception_65/middle_flow/block1/unit_3/xception_module/separable_conv2_depthwise/BatchNorm/FusedBatchNorm/Scaled", "op": "Const", "attr": {"dtype": {"type": "DT_FLOAT"}, "value": {"tensor": {"dtype": "DT_FLOAT", "tensorShape": {"dim": [{"size": "728"}]}}}}}, {"name": "xception_65/middle_flow/block1/unit_12/xception_module/separable_conv2_pointwise/Conv2D_weights", "op": "Const", "attr": {"value": {"tensor": {"dtype": "DT_FLOAT", "tensorShape": {"dim": [{"size": "1"}, {"size": "1"}, {"size": "728"}, {"size": "728"}]}}}, "dtype": {"type": "DT_FLOAT"}}}, {"name": "xception_65/middle_flow/block1/unit_12/xception_module/separable_conv2_pointwise/Conv2D_bn_offset", "op": "Const", "attr": {"value": {"tensor": {"dtype": "DT_FLOAT", "tensorShape": {"dim": [{"size": "728"}]}}}, "dtype": {"type": "DT_FLOAT"}}}, {"name": "xception_65/middle_flow/block1/unit_12/xception_module/separable_conv3_pointwise/Conv2D_weights", "op": "Const", "attr": {"value": {"tensor": {"dtype": "DT_FLOAT", "tensorShape": {"dim": [{"size": "1"}, {"size": "1"}, {"size": "728"}, {"size": "728"}]}}}, "dtype": {"type": "DT_FLOAT"}}}, {"name": "xception_65/middle_flow/block1/unit_3/xception_module/separable_conv2_depthwise/BatchNorm/FusedBatchNorm/Offset", "op": "Const", "attr": {"dtype": {"type": "DT_FLOAT"}, "value": {"tensor": {"dtype": "DT_FLOAT", "tensorShape": {"dim": [{"size": "728"}]}}}}}, {"name": "xception_65/middle_flow/block1/unit_12/xception_module/separable_conv3_pointwise/Conv2D_bn_offset", "op": "Const", "attr": {"value": {"tensor": {"dtype": "DT_FLOAT", "tensorShape": {"dim": [{"size": "728"}]}}}, "dtype": {"type": "DT_FLOAT"}}}, {"name": "xception_65/middle_flow/block1/unit_13/xception_module/separable_conv1_pointwise/Conv2D_weights", "op": "Const", "attr": {"value": {"tensor": {"dtype": "DT_FLOAT", "tensorShape": {"dim": [{"size": "1"}, {"size": "1"}, {"size": "728"}, {"size": "728"}]}}}, "dtype": {"type": "DT_FLOAT"}}}, {"name": "xception_65/middle_flow/block1/unit_13/xception_module/separable_conv1_pointwise/Conv2D_bn_offset", "op": "Const", "attr": {"value": {"tensor": {"dtype": "DT_FLOAT", "tensorShape": {"dim": [{"size": "728"}]}}}, "dtype": {"type": "DT_FLOAT"}}}, {"name": "xception_65/middle_flow/block1/unit_13/xception_module/separable_conv2_pointwise/Conv2D_weights", "op": "Const", "attr": {"value": {"tensor": {"dtype": "DT_FLOAT", "tensorShape": {"dim": [{"size": "1"}, {"size": "1"}, {"size": "728"}, {"size": "728"}]}}}, "dtype": {"type": "DT_FLOAT"}}}, {"name": "xception_65/middle_flow/block1/unit_13/xception_module/separable_conv2_pointwise/Conv2D_bn_offset", "op": "Const", "attr": {"value": {"tensor": {"dtype": "DT_FLOAT", "tensorShape": {"dim": [{"size": "728"}]}}}, "dtype": {"type": "DT_FLOAT"}}}, {"name": "xception_65/middle_flow/block1/unit_3/xception_module/separable_conv1_depthwise/BatchNorm/FusedBatchNorm/Scaled", "op": "Const", "attr": {"dtype": {"type": "DT_FLOAT"}, "value": {"tensor": {"dtype": "DT_FLOAT", "tensorShape": {"dim": [{"size": "728"}]}}}}}, {"name": "xception_65/middle_flow/block1/unit_13/xception_module/separable_conv3_pointwise/Conv2D_weights", "op": "Const", "attr": {"value": {"tensor": {"dtype": "DT_FLOAT", "tensorShape": {"dim": [{"size": "1"}, {"size": "1"}, {"size": "728"}, {"size": "728"}]}}}, "dtype": {"type": "DT_FLOAT"}}}, {"name": "xception_65/middle_flow/block1/unit_13/xception_module/separable_conv3_pointwise/Conv2D_bn_offset", "op": "Const", "attr": {"value": {"tensor": {"dtype": "DT_FLOAT", "tensorShape": {"dim": [{"size": "728"}]}}}, "dtype": {"type": "DT_FLOAT"}}}, {"name": "xception_65/middle_flow/block1/unit_14/xception_module/separable_conv1_pointwise/Conv2D_weights", "op": "Const", "attr": {"dtype": {"type": "DT_FLOAT"}, "value": {"tensor": {"dtype": "DT_FLOAT", "tensorShape": {"dim": [{"size": "1"}, {"size": "1"}, {"size": "728"}, {"size": "728"}]}}}}}, {"name": "xception_65/middle_flow/block1/unit_14/xception_module/separable_conv1_pointwise/Conv2D_bn_offset", "op": "Const", "attr": {"value": {"tensor": {"dtype": "DT_FLOAT", "tensorShape": {"dim": [{"size": "728"}]}}}, "dtype": {"type": "DT_FLOAT"}}}, {"name": "xception_65/middle_flow/block1/unit_3/xception_module/separable_conv1_depthwise/BatchNorm/FusedBatchNorm/Offset", "op": "Const", "attr": {"value": {"tensor": {"dtype": "DT_FLOAT", "tensorShape": {"dim": [{"size": "728"}]}}}, "dtype": {"type": "DT_FLOAT"}}}, {"name": "xception_65/middle_flow/block1/unit_14/xception_module/separable_conv2_pointwise/Conv2D_weights", "op": "Const", "attr": {"dtype": {"type": "DT_FLOAT"}, "value": {"tensor": {"dtype": "DT_FLOAT", "tensorShape": {"dim": [{"size": "1"}, {"size": "1"}, {"size": "728"}, {"size": "728"}]}}}}}, {"name": "xception_65/middle_flow/block1/unit_14/xception_module/separable_conv2_pointwise/Conv2D_bn_offset", "op": "Const", "attr": {"dtype": {"type": "DT_FLOAT"}, "value": {"tensor": {"dtype": "DT_FLOAT", "tensorShape": {"dim": [{"size": "728"}]}}}}}, {"name": "xception_65/middle_flow/block1/unit_14/xception_module/separable_conv3_pointwise/Conv2D_weights", "op": "Const", "attr": {"value": {"tensor": {"dtype": "DT_FLOAT", "tensorShape": {"dim": [{"size": "1"}, {"size": "1"}, {"size": "728"}, {"size": "728"}]}}}, "dtype": {"type": "DT_FLOAT"}}}, {"name": "xception_65/middle_flow/block1/unit_14/xception_module/separable_conv3_pointwise/Conv2D_bn_offset", "op": "Const", "attr": {"dtype": {"type": "DT_FLOAT"}, "value": {"tensor": {"dtype": "DT_FLOAT", "tensorShape": {"dim": [{"size": "728"}]}}}}}, {"name": "xception_65/middle_flow/block1/unit_15/xception_module/separable_conv1_pointwise/Conv2D_weights", "op": "Const", "attr": {"value": {"tensor": {"dtype": "DT_FLOAT", "tensorShape": {"dim": [{"size": "1"}, {"size": "1"}, {"size": "728"}, {"size": "728"}]}}}, "dtype": {"type": "DT_FLOAT"}}}, {"name": "xception_65/middle_flow/block1/unit_2/xception_module/separable_conv3_depthwise/BatchNorm/FusedBatchNorm/Scaled", "op": "Const", "attr": {"value": {"tensor": {"dtype": "DT_FLOAT", "tensorShape": {"dim": [{"size": "728"}]}}}, "dtype": {"type": "DT_FLOAT"}}}, {"name": "xception_65/middle_flow/block1/unit_15/xception_module/separable_conv1_pointwise/Conv2D_bn_offset", "op": "Const", "attr": {"value": {"tensor": {"dtype": "DT_FLOAT", "tensorShape": {"dim": [{"size": "728"}]}}}, "dtype": {"type": "DT_FLOAT"}}}, {"name": "xception_65/middle_flow/block1/unit_15/xception_module/separable_conv2_pointwise/Conv2D_weights", "op": "Const", "attr": {"value": {"tensor": {"dtype": "DT_FLOAT", "tensorShape": {"dim": [{"size": "1"}, {"size": "1"}, {"size": "728"}, {"size": "728"}]}}}, "dtype": {"type": "DT_FLOAT"}}}, {"name": "xception_65/middle_flow/block1/unit_15/xception_module/separable_conv2_pointwise/Conv2D_bn_offset", "op": "Const", "attr": {"value": {"tensor": {"dtype": "DT_FLOAT", "tensorShape": {"dim": [{"size": "728"}]}}}, "dtype": {"type": "DT_FLOAT"}}}, {"name": "xception_65/middle_flow/block1/unit_2/xception_module/separable_conv3_depthwise/BatchNorm/FusedBatchNorm/Offset", "op": "Const", "attr": {"value": {"tensor": {"dtype": "DT_FLOAT", "tensorShape": {"dim": [{"size": "728"}]}}}, "dtype": {"type": "DT_FLOAT"}}}, {"name": "xception_65/middle_flow/block1/unit_15/xception_module/separable_conv3_pointwise/Conv2D_weights", "op": "Const", "attr": {"dtype": {"type": "DT_FLOAT"}, "value": {"tensor": {"dtype": "DT_FLOAT", "tensorShape": {"dim": [{"size": "1"}, {"size": "1"}, {"size": "728"}, {"size": "728"}]}}}}}, {"name": "xception_65/middle_flow/block1/unit_15/xception_module/separable_conv3_pointwise/Conv2D_bn_offset", "op": "Const", "attr": {"dtype": {"type": "DT_FLOAT"}, "value": {"tensor": {"dtype": "DT_FLOAT", "tensorShape": {"dim": [{"size": "728"}]}}}}}, {"name": "xception_65/middle_flow/block1/unit_16/xception_module/separable_conv1_pointwise/Conv2D_weights", "op": "Const", "attr": {"value": {"tensor": {"dtype": "DT_FLOAT", "tensorShape": {"dim": [{"size": "1"}, {"size": "1"}, {"size": "728"}, {"size": "728"}]}}}, "dtype": {"type": "DT_FLOAT"}}}, {"name": "xception_65/middle_flow/block1/unit_16/xception_module/separable_conv1_pointwise/Conv2D_bn_offset", "op": "Const", "attr": {"dtype": {"type": "DT_FLOAT"}, "value": {"tensor": {"dtype": "DT_FLOAT", "tensorShape": {"dim": [{"size": "728"}]}}}}}, {"name": "xception_65/middle_flow/block1/unit_16/xception_module/separable_conv2_pointwise/Conv2D_weights", "op": "Const", "attr": {"dtype": {"type": "DT_FLOAT"}, "value": {"tensor": {"dtype": "DT_FLOAT", "tensorShape": {"dim": [{"size": "1"}, {"size": "1"}, {"size": "728"}, {"size": "728"}]}}}}}, {"name": "xception_65/middle_flow/block1/unit_2/xception_module/separable_conv2_depthwise/BatchNorm/FusedBatchNorm/Scaled", "op": "Const", "attr": {"value": {"tensor": {"dtype": "DT_FLOAT", "tensorShape": {"dim": [{"size": "728"}]}}}, "dtype": {"type": "DT_FLOAT"}}}, {"name": "xception_65/middle_flow/block1/unit_16/xception_module/separable_conv2_pointwise/Conv2D_bn_offset", "op": "Const", "attr": {"dtype": {"type": "DT_FLOAT"}, "value": {"tensor": {"dtype": "DT_FLOAT", "tensorShape": {"dim": [{"size": "728"}]}}}}}, {"name": "xception_65/middle_flow/block1/unit_16/xception_module/separable_conv3_pointwise/Conv2D_weights", "op": "Const", "attr": {"dtype": {"type": "DT_FLOAT"}, "value": {"tensor": {"dtype": "DT_FLOAT", "tensorShape": {"dim": [{"size": "1"}, {"size": "1"}, {"size": "728"}, {"size": "728"}]}}}}}, {"name": "xception_65/middle_flow/block1/unit_16/xception_module/separable_conv3_pointwise/Conv2D_bn_offset", "op": "Const", "attr": {"value": {"tensor": {"dtype": "DT_FLOAT", "tensorShape": {"dim": [{"size": "728"}]}}}, "dtype": {"type": "DT_FLOAT"}}}, {"name": "xception_65/exit_flow/block1/unit_1/xception_module/shortcut/Conv2D_weights", "op": "Const", "attr": {"value": {"tensor": {"dtype": "DT_FLOAT", "tensorShape": {"dim": [{"size": "1"}, {"size": "1"}, {"size": "728"}, {"size": "1024"}]}}}, "dtype": {"type": "DT_FLOAT"}}}, {"name": "xception_65/middle_flow/block1/unit_2/xception_module/separable_conv2_depthwise/BatchNorm/FusedBatchNorm/Offset", "op": "Const", "attr": {"dtype": {"type": "DT_FLOAT"}, "value": {"tensor": {"dtype": "DT_FLOAT", "tensorShape": {"dim": [{"size": "728"}]}}}}}, {"name": "xception_65/exit_flow/block1/unit_1/xception_module/shortcut/Conv2D_bn_offset", "op": "Const", "attr": {"dtype": {"type": "DT_FLOAT"}, "value": {"tensor": {"dtype": "DT_FLOAT", "tensorShape": {"dim": [{"size": "1024"}]}}}}}, {"name": "xception_65/exit_flow/block1/unit_1/xception_module/separable_conv1_pointwise/Conv2D_weights", "op": "Const", "attr": {"value": {"tensor": {"dtype": "DT_FLOAT", "tensorShape": {"dim": [{"size": "1"}, {"size": "1"}, {"size": "728"}, {"size": "728"}]}}}, "dtype": {"type": "DT_FLOAT"}}}, {"name": "xception_65/exit_flow/block1/unit_1/xception_module/separable_conv1_pointwise/Conv2D_bn_offset", "op": "Const", "attr": {"dtype": {"type": "DT_FLOAT"}, "value": {"tensor": {"dtype": "DT_FLOAT", "tensorShape": {"dim": [{"size": "728"}]}}}}}, {"name": "xception_65/exit_flow/block1/unit_1/xception_module/separable_conv2_pointwise/Conv2D_weights", "op": "Const", "attr": {"dtype": {"type": "DT_FLOAT"}, "value": {"tensor": {"dtype": "DT_FLOAT", "tensorShape": {"dim": [{"size": "1"}, {"size": "1"}, {"size": "728"}, {"size": "1024"}]}}}}}, {"name": "xception_65/exit_flow/block1/unit_1/xception_module/separable_conv2_pointwise/Conv2D_bn_offset", "op": "Const", "attr": {"value": {"tensor": {"dtype": "DT_FLOAT", "tensorShape": {"dim": [{"size": "1024"}]}}}, "dtype": {"type": "DT_FLOAT"}}}, {"name": "xception_65/middle_flow/block1/unit_2/xception_module/separable_conv1_depthwise/BatchNorm/FusedBatchNorm/Scaled", "op": "Const", "attr": {"value": {"tensor": {"dtype": "DT_FLOAT", "tensorShape": {"dim": [{"size": "728"}]}}}, "dtype": {"type": "DT_FLOAT"}}}, {"name": "xception_65/exit_flow/block1/unit_1/xception_module/separable_conv3_pointwise/Conv2D_weights", "op": "Const", "attr": {"dtype": {"type": "DT_FLOAT"}, "value": {"tensor": {"dtype": "DT_FLOAT", "tensorShape": {"dim": [{"size": "1"}, {"size": "1"}, {"size": "1024"}, {"size": "1024"}]}}}}}, {"name": "xception_65/exit_flow/block1/unit_1/xception_module/separable_conv3_pointwise/Conv2D_bn_offset", "op": "Const", "attr": {"value": {"tensor": {"dtype": "DT_FLOAT", "tensorShape": {"dim": [{"size": "1024"}]}}}, "dtype": {"type": "DT_FLOAT"}}}, {"name": "xception_65/exit_flow/block2/unit_1/xception_module/separable_conv1_pointwise/Conv2D_weights", "op": "Const", "attr": {"dtype": {"type": "DT_FLOAT"}, "value": {"tensor": {"dtype": "DT_FLOAT", "tensorShape": {"dim": [{"size": "1"}, {"size": "1"}, {"size": "1024"}, {"size": "1536"}]}}}}}, {"name": "xception_65/exit_flow/block2/unit_1/xception_module/separable_conv1_pointwise/Conv2D_bn_offset", "op": "Const", "attr": {"value": {"tensor": {"dtype": "DT_FLOAT", "tensorShape": {"dim": [{"size": "1536"}]}}}, "dtype": {"type": "DT_FLOAT"}}}, {"name": "xception_65/middle_flow/block1/unit_2/xception_module/separable_conv1_depthwise/BatchNorm/FusedBatchNorm/Offset", "op": "Const", "attr": {"value": {"tensor": {"dtype": "DT_FLOAT", "tensorShape": {"dim": [{"size": "728"}]}}}, "dtype": {"type": "DT_FLOAT"}}}, {"name": "xception_65/exit_flow/block2/unit_1/xception_module/separable_conv2_pointwise/Conv2D_weights", "op": "Const", "attr": {"value": {"tensor": {"dtype": "DT_FLOAT", "tensorShape": {"dim": [{"size": "1"}, {"size": "1"}, {"size": "1536"}, {"size": "1536"}]}}}, "dtype": {"type": "DT_FLOAT"}}}, {"name": "xception_65/exit_flow/block2/unit_1/xception_module/separable_conv2_pointwise/Conv2D_bn_offset", "op": "Const", "attr": {"dtype": {"type": "DT_FLOAT"}, "value": {"tensor": {"dtype": "DT_FLOAT", "tensorShape": {"dim": [{"size": "1536"}]}}}}}, {"name": "xception_65/exit_flow/block2/unit_1/xception_module/separable_conv3_pointwise/Conv2D_weights", "op": "Const", "attr": {"value": {"tensor": {"dtype": "DT_FLOAT", "tensorShape": {"dim": [{"size": "1"}, {"size": "1"}, {"size": "1536"}, {"size": "2048"}]}}}, "dtype": {"type": "DT_FLOAT"}}}, {"name": "xception_65/exit_flow/block2/unit_1/xception_module/separable_conv3_pointwise/Conv2D_bn_offset", "op": "Const", "attr": {"dtype": {"type": "DT_FLOAT"}, "value": {"tensor": {"dtype": "DT_FLOAT", "tensorShape": {"dim": [{"size": "2048"}]}}}}}, {"name": "xception_65/middle_flow/block1/unit_1/xception_module/separable_conv3_depthwise/BatchNorm/FusedBatchNorm/Scaled", "op": "Const", "attr": {"dtype": {"type": "DT_FLOAT"}, "value": {"tensor": {"dtype": "DT_FLOAT", "tensorShape": {"dim": [{"size": "728"}]}}}}}, {"name": "aspp0/Conv2D_weights", "op": "Const", "attr": {"value": {"tensor": {"dtype": "DT_FLOAT", "tensorShape": {"dim": [{"size": "1"}, {"size": "1"}, {"size": "2048"}, {"size": "256"}]}}}, "dtype": {"type": "DT_FLOAT"}}}, {"name": "aspp0/Conv2D_bn_offset", "op": "Const", "attr": {"dtype": {"type": "DT_FLOAT"}, "value": {"tensor": {"dtype": "DT_FLOAT", "tensorShape": {"dim": [{"size": "256"}]}}}}}, {"name": "image_pooling/Conv2D_weights", "op": "Const", "attr": {"value": {"tensor": {"dtype": "DT_FLOAT", "tensorShape": {"dim": [{"size": "1"}, {"size": "1"}, {"size": "2048"}, {"size": "256"}]}}}, "dtype": {"type": "DT_FLOAT"}}}, {"name": "xception_65/middle_flow/block1/unit_1/xception_module/separable_conv3_depthwise/BatchNorm/FusedBatchNorm/Offset", "op": "Const", "attr": {"value": {"tensor": {"dtype": "DT_FLOAT", "tensorShape": {"dim": [{"size": "728"}]}}}, "dtype": {"type": "DT_FLOAT"}}}, {"name": "image_pooling/Conv2D_bn_offset", "op": "Const", "attr": {"value": {"tensor": {"dtype": "DT_FLOAT", "tensorShape": {"dim": [{"size": "256"}]}}}, "dtype": {"type": "DT_FLOAT"}}}, {"name": "aspp1_pointwise/Conv2D_weights", "op": "Const", "attr": {"value": {"tensor": {"dtype": "DT_FLOAT", "tensorShape": {"dim": [{"size": "1"}, {"size": "1"}, {"size": "2048"}, {"size": "256"}]}}}, "dtype": {"type": "DT_FLOAT"}}}, {"name": "aspp1_pointwise/Conv2D_bn_offset", "op": "Const", "attr": {"dtype": {"type": "DT_FLOAT"}, "value": {"tensor": {"dtype": "DT_FLOAT", "tensorShape": {"dim": [{"size": "256"}]}}}}}, {"name": "aspp2_pointwise/Conv2D_weights", "op": "Const", "attr": {"dtype": {"type": "DT_FLOAT"}, "value": {"tensor": {"dtype": "DT_FLOAT", "tensorShape": {"dim": [{"size": "1"}, {"size": "1"}, {"size": "2048"}, {"size": "256"}]}}}}}, {"name": "xception_65/middle_flow/block1/unit_1/xception_module/separable_conv2_depthwise/BatchNorm/FusedBatchNorm/Scaled", "op": "Const", "attr": {"value": {"tensor": {"dtype": "DT_FLOAT", "tensorShape": {"dim": [{"size": "728"}]}}}, "dtype": {"type": "DT_FLOAT"}}}, {"name": "aspp2_pointwise/Conv2D_bn_offset", "op": "Const", "attr": {"value": {"tensor": {"dtype": "DT_FLOAT", "tensorShape": {"dim": [{"size": "256"}]}}}, "dtype": {"type": "DT_FLOAT"}}}, {"name": "aspp3_pointwise/Conv2D_weights", "op": "Const", "attr": {"value": {"tensor": {"dtype": "DT_FLOAT", "tensorShape": {"dim": [{"size": "1"}, {"size": "1"}, {"size": "2048"}, {"size": "256"}]}}}, "dtype": {"type": "DT_FLOAT"}}}, {"name": "aspp3_pointwise/Conv2D_bn_offset", "op": "Const", "attr": {"value": {"tensor": {"dtype": "DT_FLOAT", "tensorShape": {"dim": [{"size": "256"}]}}}, "dtype": {"type": "DT_FLOAT"}}}, {"name": "xception_65/middle_flow/block1/unit_1/xception_module/separable_conv2_depthwise/BatchNorm/FusedBatchNorm/Offset", "op": "Const", "attr": {"value": {"tensor": {"dtype": "DT_FLOAT", "tensorShape": {"dim": [{"size": "728"}]}}}, "dtype": {"type": "DT_FLOAT"}}}, {"name": "concat_projection/Conv2D_weights", "op": "Const", "attr": {"dtype": {"type": "DT_FLOAT"}, "value": {"tensor": {"dtype": "DT_FLOAT", "tensorShape": {"dim": [{"size": "1"}, {"size": "1"}, {"size": "1280"}, {"size": "256"}]}}}}}, {"name": "concat_projection/Conv2D_bn_offset", "op": "Const", "attr": {"value": {"tensor": {"dtype": "DT_FLOAT", "tensorShape": {"dim": [{"size": "256"}]}}}, "dtype": {"type": "DT_FLOAT"}}}, {"name": "decoder/decoder_conv0_depthwise/depthwise_weights", "op": "Const", "attr": {"dtype": {"type": "DT_FLOAT"}, "value": {"tensor": {"dtype": "DT_FLOAT", "tensorShape": {"dim": [{"size": "3"}, {"size": "3"}, {"size": "304"}, {"size": "1"}]}}}}}, {"name": "decoder/decoder_conv0_depthwise/depthwise_bn_offset", "op": "Const", "attr": {"value": {"tensor": {"dtype": "DT_FLOAT", "tensorShape": {"dim": [{"size": "304"}]}}}, "dtype": {"type": "DT_FLOAT"}}}, {"name": "decoder/decoder_conv0_pointwise/Conv2D_weights", "op": "Const", "attr": {"value": {"tensor": {"dtype": "DT_FLOAT", "tensorShape": {"dim": [{"size": "1"}, {"size": "1"}, {"size": "304"}, {"size": "256"}]}}}, "dtype": {"type": "DT_FLOAT"}}}, {"name": "decoder/decoder_conv0_pointwise/Conv2D_bn_offset", "op": "Const", "attr": {"dtype": {"type": "DT_FLOAT"}, "value": {"tensor": {"dtype": "DT_FLOAT", "tensorShape": {"dim": [{"size": "256"}]}}}}}, {"name": "xception_65/middle_flow/block1/unit_1/xception_module/separable_conv1_depthwise/BatchNorm/FusedBatchNorm/Scaled", "op": "Const", "attr": {"value": {"tensor": {"dtype": "DT_FLOAT", "tensorShape": {"dim": [{"size": "728"}]}}}, "dtype": {"type": "DT_FLOAT"}}}, {"name": "decoder/decoder_conv1_depthwise/depthwise_weights", "op": "Const", "attr": {"value": {"tensor": {"dtype": "DT_FLOAT", "tensorShape": {"dim": [{"size": "3"}, {"size": "3"}, {"size": "256"}, {"size": "1"}]}}}, "dtype": {"type": "DT_FLOAT"}}}, {"name": "decoder/decoder_conv1_depthwise/depthwise_bn_offset", "op": "Const", "attr": {"value": {"tensor": {"dtype": "DT_FLOAT", "tensorShape": {"dim": [{"size": "256"}]}}}, "dtype": {"type": "DT_FLOAT"}}}, {"name": "decoder/decoder_conv1_pointwise/Conv2D_weights", "op": "Const", "attr": {"dtype": {"type": "DT_FLOAT"}, "value": {"tensor": {"dtype": "DT_FLOAT", "tensorShape": {"dim": [{"size": "1"}, {"size": "1"}, {"size": "256"}, {"size": "256"}]}}}}}, {"name": "decoder/decoder_conv1_pointwise/Conv2D_bn_offset", "op": "Const", "attr": {"value": {"tensor": {"dtype": "DT_FLOAT", "tensorShape": {"dim": [{"size": "256"}]}}}, "dtype": {"type": "DT_FLOAT"}}}, {"name": "xception_65/middle_flow/block1/unit_1/xception_module/separable_conv1_depthwise/BatchNorm/FusedBatchNorm/Offset", "op": "Const", "attr": {"value": {"tensor": {"dtype": "DT_FLOAT", "tensorShape": {"dim": [{"size": "728"}]}}}, "dtype": {"type": "DT_FLOAT"}}}, {"name": "aspp3_depthwise/BatchNorm/FusedBatchNorm/Scaled", "op": "Const", "attr": {"dtype": {"type": "DT_FLOAT"}, "value": {"tensor": {"dtype": "DT_FLOAT", "tensorShape": {"dim": [{"size": "2048"}]}}}}}, {"name": "aspp3_depthwise/BatchNorm/FusedBatchNorm/Offset", "op": "Const", "attr": {"dtype": {"type": "DT_FLOAT"}, "value": {"tensor": {"dtype": "DT_FLOAT", "tensorShape": {"dim": [{"size": "2048"}]}}}}}, {"name": "aspp2_depthwise/BatchNorm/FusedBatchNorm/Scaled", "op": "Const", "attr": {"value": {"tensor": {"dtype": "DT_FLOAT", "tensorShape": {"dim": [{"size": "2048"}]}}}, "dtype": {"type": "DT_FLOAT"}}}, {"name": "aspp2_depthwise/BatchNorm/FusedBatchNorm/Offset", "op": "Const", "attr": {"value": {"tensor": {"dtype": "DT_FLOAT", "tensorShape": {"dim": [{"size": "2048"}]}}}, "dtype": {"type": "DT_FLOAT"}}}, {"name": "aspp1_depthwise/BatchNorm/FusedBatchNorm/Scaled", "op": "Const", "attr": {"dtype": {"type": "DT_FLOAT"}, "value": {"tensor": {"dtype": "DT_FLOAT", "tensorShape": {"dim": [{"size": "2048"}]}}}}}, {"name": "aspp1_depthwise/BatchNorm/FusedBatchNorm/Offset", "op": "Const", "attr": {"dtype": {"type": "DT_FLOAT"}, "value": {"tensor": {"dtype": "DT_FLOAT", "tensorShape": {"dim": [{"size": "2048"}]}}}}}, {"name": "xception_65/exit_flow/block2/unit_1/xception_module/separable_conv3_depthwise/BatchNorm/FusedBatchNorm/Scaled", "op": "Const", "attr": {"dtype": {"type": "DT_FLOAT"}, "value": {"tensor": {"dtype": "DT_FLOAT", "tensorShape": {"dim": [{"size": "1536"}]}}}}}, {"name": "xception_65/exit_flow/block2/unit_1/xception_module/separable_conv3_depthwise/BatchNorm/FusedBatchNorm/Offset", "op": "Const", "attr": {"dtype": {"type": "DT_FLOAT"}, "value": {"tensor": {"dtype": "DT_FLOAT", "tensorShape": {"dim": [{"size": "1536"}]}}}}}, {"name": "xception_65/exit_flow/block2/unit_1/xception_module/separable_conv2_depthwise/BatchNorm/FusedBatchNorm/Scaled", "op": "Const", "attr": {"dtype": {"type": "DT_FLOAT"}, "value": {"tensor": {"dtype": "DT_FLOAT", "tensorShape": {"dim": [{"size": "1536"}]}}}}}, {"name": "xception_65/exit_flow/block2/unit_1/xception_module/separable_conv2_depthwise/BatchNorm/FusedBatchNorm/Offset", "op": "Const", "attr": {"dtype": {"type": "DT_FLOAT"}, "value": {"tensor": {"dtype": "DT_FLOAT", "tensorShape": {"dim": [{"size": "1536"}]}}}}}, {"name": "xception_65/exit_flow/block2/unit_1/xception_module/separable_conv1_depthwise/BatchNorm/FusedBatchNorm/Scaled", "op": "Const", "attr": {"value": {"tensor": {"dtype": "DT_FLOAT", "tensorShape": {"dim": [{"size": "1024"}]}}}, "dtype": {"type": "DT_FLOAT"}}}, {"name": "xception_65/exit_flow/block2/unit_1/xception_module/separable_conv1_depthwise/BatchNorm/FusedBatchNorm/Offset", "op": "Const", "attr": {"dtype": {"type": "DT_FLOAT"}, "value": {"tensor": {"dtype": "DT_FLOAT", "tensorShape": {"dim": [{"size": "1024"}]}}}}}, {"name": "xception_65/exit_flow/block1/unit_1/xception_module/separable_conv3_depthwise/BatchNorm/FusedBatchNorm/Scaled", "op": "Const", "attr": {"dtype": {"type": "DT_FLOAT"}, "value": {"tensor": {"dtype": "DT_FLOAT", "tensorShape": {"dim": [{"size": "1024"}]}}}}}, {"name": "xception_65/exit_flow/block1/unit_1/xception_module/separable_conv3_depthwise/BatchNorm/FusedBatchNorm/Offset", "op": "Const", "attr": {"dtype": {"type": "DT_FLOAT"}, "value": {"tensor": {"dtype": "DT_FLOAT", "tensorShape": {"dim": [{"size": "1024"}]}}}}}, {"name": "xception_65/exit_flow/block1/unit_1/xception_module/separable_conv2_depthwise/BatchNorm/FusedBatchNorm/Scaled", "op": "Const", "attr": {"dtype": {"type…
pe": "uint8", "min": 1.3769041299819946, "scale": 0.06609154261794745, "original_dtype": "float32"}}, {"name": "xception_65/middle_flow/block1/unit_8/xception_module/separable_conv1_pointwise/Conv2D_bn_offset", "shape": [728], "dtype": "float32", "quantization": {"dtype": "uint8", "min": -1.411662256016451, "scale": 0.0065354734074835686, "original_dtype": "float32"}}, {"name": "xception_65/middle_flow/block1/unit_8/xception_module/separable_conv2_pointwise/Conv2D_weights", "shape": [1, 1, 728, 728], "dtype": "float32", "quantization": {"dtype": "uint8", "min": -0.34035533421179825, "scale": 0.002413867618523392, "original_dtype": "float32"}}, {"name": "xception_65/middle_flow/block1/unit_8/xception_module/separable_conv2_pointwise/Conv2D_bn_offset", "shape": [728], "dtype": "float32", "quantization": {"dtype": "uint8", "min": -1.3755098978678386, "scale": 0.008874257405598959, "original_dtype": "float32"}}, {"name": "xception_65/middle_flow/block1/unit_4/xception_module/separable_conv2_depthwise/BatchNorm/FusedBatchNorm/Offset", "shape": [728], "dtype": "float32", "quantization": {"dtype": "uint8", "min": -2.1790057631099926, "scale": 0.01578989683413038, "original_dtype": "float32"}}, {"name": "xception_65/middle_flow/block1/unit_8/xception_module/separable_conv3_pointwise/Conv2D_weights", "shape": [1, 1, 728, 728], "dtype": "float32", "quantization": {"dtype": "uint8", "min": -0.3821366962264566, "scale": 0.002873208242304185, "original_dtype": "float32"}}, {"name": "xception_65/middle_flow/block1/unit_8/xception_module/separable_conv3_pointwise/Conv2D_bn_offset", "shape": [728], "dtype": "float32", "quantization": {"dtype": "uint8", "min": -1.3198230757432825, "scale": 0.010730268908481971, "original_dtype": "float32"}}, {"name": "xception_65/middle_flow/block1/unit_9/xception_module/separable_conv1_pointwise/Conv2D_weights", "shape": [1, 1, 728, 728], "dtype": "float32", "quantization": {"dtype": "uint8", "min": -0.35653706683832054, "scale": 0.0026410153099134855, "original_dtype": "float32"}}, {"name": "xception_65/middle_flow/block1/unit_9/xception_module/separable_conv1_pointwise/Conv2D_bn_offset", "shape": [728], "dtype": "float32", "quantization": {"dtype": "uint8", "min": -1.3130961941737755, "scale": 0.007136392359640084, "original_dtype": "float32"}}, {"name": "xception_65/middle_flow/block1/unit_9/xception_module/separable_conv2_pointwise/Conv2D_weights", "shape": [1, 1, 728, 728], "dtype": "float32", "quantization": {"dtype": "uint8", "min": -0.2178440393186083, "scale": 0.0017019065571766273, "original_dtype": "float32"}}, {"name": "xception_65/middle_flow/block1/unit_4/xception_module/separable_conv1_depthwise/BatchNorm/FusedBatchNorm/Scaled", "shape": [728], "dtype": "float32", "quantization": {"dtype": "uint8", "min": 0.1361834704875946, "scale": 0.19182068051076404, "original_dtype": "float32"}}, {"name": "xception_65/middle_flow/block1/unit_9/xception_module/separable_conv2_pointwise/Conv2D_bn_offset", "shape": [728], "dtype": "float32", "quantization": {"dtype": "uint8", "min": -1.3911441838040073, "scale": 0.006101509578087751, "original_dtype": "float32"}}, {"name": "xception_65/middle_flow/block1/unit_9/xception_module/separable_conv3_pointwise/Conv2D_weights", "shape": [1, 1, 728, 728], "dtype": "float32", "quantization": {"dtype": "uint8", "min": -0.41127506073783426, "scale": 0.003163654313367956, "original_dtype": "float32"}}, {"name": "xception_65/middle_flow/block1/unit_9/xception_module/separable_conv3_pointwise/Conv2D_bn_offset", "shape": [728], "dtype": "float32", "quantization": {"dtype": "uint8", "min": -0.9410475749595493, "scale": 0.009048534374611051, "original_dtype": "float32"}}, {"name": "xception_65/middle_flow/block1/unit_10/xception_module/separable_conv1_pointwise/Conv2D_weights", "shape": [1, 1, 728, 728], "dtype": "float32", "quantization": {"dtype": "uint8", "min": -0.2716085770550896, "scale": 0.0022634048087924134, "original_dtype": "float32"}}, {"name": "xception_65/middle_flow/block1/unit_4/xception_module/separable_conv1_depthwise/BatchNorm/FusedBatchNorm/Offset", "shape": [728], "dtype": "float32", "quantization": {"dtype": "uint8", "min": -1.192220708435657, "scale": 0.009614683132545621, "original_dtype": "float32"}}, {"name": "xception_65/middle_flow/block1/unit_10/xception_module/separable_conv1_pointwise/Conv2D_bn_offset", "shape": [728], "dtype": "float32", "quantization": {"dtype": "uint8", "min": -0.949644739487592, "scale": 0.004946066351497875, "original_dtype": "float32"}}, {"name": "xception_65/middle_flow/block1/unit_10/xception_module/separable_conv2_pointwise/Conv2D_weights", "shape": [1, 1, 728, 728], "dtype": "float32", "quantization": {"dtype": "uint8", "min": -0.16174225947436166, "scale": 0.0012441712267258589, "original_dtype": "float32"}}, {"name": "xception_65/middle_flow/block1/unit_10/xception_module/separable_conv2_pointwise/Conv2D_bn_offset", "shape": [728], "dtype": "float32", "quantization": {"dtype": "uint8", "min": -1.264935064315796, "scale": 0.006200662079979392, "original_dtype": "float32"}}, {"name": "xception_65/middle_flow/block1/unit_10/xception_module/separable_conv3_pointwise/Conv2D_weights", "shape": [1, 1, 728, 728], "dtype": "float32", "quantization": {"dtype": "uint8", "min": -0.6085386696983787, "scale": 0.006085386696983787, "original_dtype": "float32"}}, {"name": "xception_65/middle_flow/block1/unit_3/xception_module/separable_conv3_depthwise/BatchNorm/FusedBatchNorm/Scaled", "shape": [728], "dtype": "float32", "quantization": {"dtype": "uint8", "min": 1.7725192308425903, "scale": 0.2523945037056418, "original_dtype": "float32"}}, {"name": "xception_65/middle_flow/block1/unit_10/xception_module/separable_conv3_pointwise/Conv2D_bn_offset", "shape": [728], "dtype": "float32", "quantization": {"dtype": "uint8", "min": -0.8715056650778826, "scale": 0.008984594485338997, "original_dtype": "float32"}}, {"name": "xception_65/middle_flow/block1/unit_11/xception_module/separable_conv1_pointwise/Conv2D_weights", "shape": [1, 1, 728, 728], "dtype": "float32", "quantization": {"dtype": "uint8", "min": -0.23184713528436773, "scale": 0.001884936059222502, "original_dtype": "float32"}}, {"name": "xception_65/middle_flow/block1/unit_11/xception_module/separable_conv1_pointwise/Conv2D_bn_offset", "shape": [728], "dtype": "float32", "quantization": {"dtype": "uint8", "min": -1.3277321755886078, "scale": 0.0068088829517364505, "original_dtype": "float32"}}, {"name": "xception_65/middle_flow/block1/unit_11/xception_module/separable_conv2_pointwise/Conv2D_weights", "shape": [1, 1, 728, 728], "dtype": "float32", "quantization": {"dtype": "uint8", "min": -0.2342943359823788, "scale": 0.0020919137141283822, "original_dtype": "float32"}}, {"name": "xception_65/middle_flow/block1/unit_3/xception_module/separable_conv3_depthwise/BatchNorm/FusedBatchNorm/Offset", "shape": [728], "dtype": "float32", "quantization": {"dtype": "uint8", "min": -1.5920354226056266, "scale": 0.0130494706770953, "original_dtype": "float32"}}, {"name": "xception_65/middle_flow/block1/unit_11/xception_module/separable_conv2_pointwise/Conv2D_bn_offset", "shape": [728], "dtype": "float32", "quantization": {"dtype": "uint8", "min": -1.452939296323879, "scale": 0.006182720409888847, "original_dtype": "float32"}}, {"name": "xception_65/middle_flow/block1/unit_11/xception_module/separable_conv3_pointwise/Conv2D_weights", "shape": [1, 1, 728, 728], "dtype": "float32", "quantization": {"dtype": "uint8", "min": -0.3579135472868003, "scale": 0.0028633083782944025, "original_dtype": "float32"}}, {"name": "xception_65/middle_flow/block1/unit_11/xception_module/separable_conv3_pointwise/Conv2D_bn_offset", "shape": [728], "dtype": "float32", "quantization": {"dtype": "uint8", "min": -0.6832712199173722, "scale": 0.007192328630709181, "original_dtype": "float32"}}, {"name": "xception_65/middle_flow/block1/unit_12/xception_module/separable_conv1_pointwise/Conv2D_weights", "shape": [1, 1, 728, 728], "dtype": "float32", "quantization": {"dtype": "uint8", "min": -0.2308319561621722, "scale": 0.0017487269406225167, "original_dtype": "float32"}}, {"name": "xception_65/middle_flow/block1/unit_12/xception_module/separable_conv1_pointwise/Conv2D_bn_offset", "shape": [728], "dtype": "float32", "quantization": {"dtype": "uint8", "min": -1.091738555945602, "scale": 0.006656942414302452, "original_dtype": "float32"}}, {"name": "xception_65/middle_flow/block1/unit_3/xception_module/separable_conv2_depthwise/BatchNorm/FusedBatchNorm/Scaled", "shape": [728], "dtype": "float32", "quantization": {"dtype": "uint8", "min": 1.831435203552246, "scale": 0.10568475536271638, "original_dtype": "float32"}}, {"name": "xception_65/middle_flow/block1/unit_12/xception_module/separable_conv2_pointwise/Conv2D_weights", "shape": [1, 1, 728, 728], "dtype": "float32", "quantization": {"dtype": "uint8", "min": -0.22355564832687377, "scale": 0.0016936033964157105, "original_dtype": "float32"}}, {"name": "xception_65/middle_flow/block1/unit_12/xception_module/separable_conv2_pointwise/Conv2D_bn_offset", "shape": [728], "dtype": "float32", "quantization": {"dtype": "uint8", "min": -1.2802468973047594, "scale": 0.008422676955952365, "original_dtype": "float32"}}, {"name": "xception_65/middle_flow/block1/unit_12/xception_module/separable_conv3_pointwise/Conv2D_weights", "shape": [1, 1, 728, 728], "dtype": "float32", "quantization": {"dtype": "uint8", "min": -0.3567450372611775, "scale": 0.002682293513241936, "original_dtype": "float32"}}, {"name": "xception_65/middle_flow/block1/unit_3/xception_module/separable_conv2_depthwise/BatchNorm/FusedBatchNorm/Offset", "shape": [728], "dtype": "float32", "quantization": {"dtype": "uint8", "min": -0.9366991344620199, "scale": 0.008438730941099279, "original_dtype": "float32"}}, {"name": "xception_65/middle_flow/block1/unit_12/xception_module/separable_conv3_pointwise/Conv2D_bn_offset", "shape": [728], "dtype": "float32", "quantization": {"dtype": "uint8", "min": -1.3115203731200276, "scale": 0.009714965726815019, "original_dtype": "float32"}}, {"name": "xception_65/middle_flow/block1/unit_13/xception_module/separable_conv1_pointwise/Conv2D_weights", "shape": [1, 1, 728, 728], "dtype": "float32", "quantization": {"dtype": "uint8", "min": -0.25443981675540694, "scale": 0.002120331806295058, "original_dtype": "float32"}}, {"name": "xception_65/middle_flow/block1/unit_13/xception_module/separable_conv1_pointwise/Conv2D_bn_offset", "shape": [728], "dtype": "float32", "quantization": {"dtype": "uint8", "min": -1.2109315553132225, "scale": 0.006407045266207527, "original_dtype": "float32"}}, {"name": "xception_65/middle_flow/block1/unit_13/xception_module/separable_conv2_pointwise/Conv2D_weights", "shape": [1, 1, 728, 728], "dtype": "float32", "quantization": {"dtype": "uint8", "min": -0.2295524611192591, "scale": 0.002207235203069799, "original_dtype": "float32"}}, {"name": "xception_65/middle_flow/block1/unit_13/xception_module/separable_conv2_pointwise/Conv2D_bn_offset", "shape": [728], "dtype": "float32", "quantization": {"dtype": "uint8", "min": -1.178221915399327, "scale": 0.00569189331110786, "original_dtype": "float32"}}, {"name": "xception_65/middle_flow/block1/unit_3/xception_module/separable_conv1_depthwise/BatchNorm/FusedBatchNorm/Scaled", "shape": [728], "dtype": "float32", "quantization": {"dtype": "uint8", "min": 0.04261375218629837, "scale": 0.18861345867900287, "original_dtype": "float32"}}, {"name": "xception_65/middle_flow/block1/unit_13/xception_module/separable_conv3_pointwise/Conv2D_weights", "shape": [1, 1, 728, 728], "dtype": "float32", "quantization": {"dtype": "uint8", "min": -0.40287578807157626, "scale": 0.0031974268894569544, "original_dtype": "float32"}}, {"name": "xception_65/middle_flow/block1/unit_13/xception_module/separable_conv3_pointwise/Conv2D_bn_offset", "shape": [728], "dtype": "float32", "quantization": {"dtype": "uint8", "min": -1.0910550715876561, "scale": 0.008943074357275869, "original_dtype": "float32"}}, {"name": "xception_65/middle_flow/block1/unit_14/xception_module/separable_conv1_pointwise/Conv2D_weights", "shape": [1, 1, 728, 728], "dtype": "float32", "quantization": {"dtype": "uint8", "min": -0.27810850599232845, "scale": 0.0020152790289299162, "original_dtype": "float32"}}, {"name": "xception_65/middle_flow/block1/unit_14/xception_module/separable_conv1_pointwise/Conv2D_bn_offset", "shape": [728], "dtype": "float32", "quantization": {"dtype": "uint8", "min": -1.1999705819522632, "scale": 0.00666650323306813, "original_dtype": "float32"}}, {"name": "xception_65/middle_flow/block1/unit_3/xception_module/separable_conv1_depthwise/BatchNorm/FusedBatchNorm/Offset", "shape": [728], "dtype": "float32", "quantization": {"dtype": "uint8", "min": -1.1227304309022192, "scale": 0.012758300351161583, "original_dtype": "float32"}}, {"name": "xception_65/middle_flow/block1/unit_14/xception_module/separable_conv2_pointwise/Conv2D_weights", "shape": [1, 1, 728, 728], "dtype": "float32", "quantization": {"dtype": "uint8", "min": -0.2032822669721117, "scale": 0.001722731076034845, "original_dtype": "float32"}}, {"name": "xception_65/middle_flow/block1/unit_14/xception_module/separable_conv2_pointwise/Conv2D_bn_offset", "shape": [728], "dtype": "float32", "quantization": {"dtype": "uint8", "min": -1.1349825424306534, "scale": 0.004850352745430143, "original_dtype": "float32"}}, {"name": "xception_65/middle_flow/block1/unit_14/xception_module/separable_conv3_pointwise/Conv2D_weights", "shape": [1, 1, 728, 728], "dtype": "float32", "quantization": {"dtype": "uint8", "min": -0.3834775550692689, "scale": 0.003249809788722618, "original_dtype": "float32"}}, {"name": "xception_65/middle_flow/block1/unit_14/xception_module/separable_conv3_pointwise/Conv2D_bn_offset", "shape": [728], "dtype": "float32", "quantization": {"dtype": "uint8", "min": -0.8717834977542652, "scale": 0.009906630656298468, "original_dtype": "float32"}}, {"name": "xception_65/middle_flow/block1/unit_15/xception_module/separable_conv1_pointwise/Conv2D_weights", "shape": [1, 1, 728, 728], "dtype": "float32", "quantization": {"dtype": "uint8", "min": -0.2632690019467298, "scale": 0.0022501624098011093, "original_dtype": "float32"}}, {"name": "xception_65/middle_flow/block1/unit_2/xception_module/separable_conv3_depthwise/BatchNorm/FusedBatchNorm/Scaled", "shape": [728], "dtype": "float32", "quantization": {"dtype": "uint8", "min": 1.741330623626709, "scale": 0.12839301053215477, "original_dtype": "float32"}}, {"name": "xception_65/middle_flow/block1/unit_15/xception_module/separable_conv1_pointwise/Conv2D_bn_offset", "shape": [728], "dtype": "float32", "quantization": {"dtype": "uint8", "min": -1.0324094156424204, "scale": 0.0052406569321950276, "original_dtype": "float32"}}, {"name": "xception_65/middle_flow/block1/unit_15/xception_module/separable_conv2_pointwise/Conv2D_weights", "shape": [1, 1, 728, 728], "dtype": "float32", "quantization": {"dtype": "uint8", "min": -0.26646174122305477, "scale": 0.002018649554720112, "original_dtype": "float32"}}, {"name": "xception_65/middle_flow/block1/unit_15/xception_module/separable_conv2_pointwise/Conv2D_bn_offset", "shape": [728], "dtype": "float32", "quantization": {"dtype": "uint8", "min": -1.0871918906768163, "scale": 0.00456803315410427, "original_dtype": "float32"}}, {"name": "xception_65/middle_flow/block1/unit_2/xception_module/separable_conv3_depthwise/BatchNorm/FusedBatchNorm/Offset", "shape": [728], "dtype": "float32", "quantization": {"dtype": "uint8", "min": -1.1750309364468443, "scale": 0.010129577038334866, "original_dtype": "float32"}}, {"name": "xception_65/middle_flow/block1/unit_15/xception_module/separable_conv3_pointwise/Conv2D_weights", "shape": [1, 1, 728, 728], "dtype": "float32", "quantization": {"dtype": "uint8", "min": -0.5245016168145572, "scale": 0.004725239791122137, "original_dtype": "float32"}}, {"name": "xception_65/middle_flow/block1/unit_15/xception_module/separable_conv3_pointwise/Conv2D_bn_offset", "shape": [728], "dtype": "float32", "quantization": {"dtype": "uint8", "min": -0.7724251139397714, "scale": 0.010163488341312782, "original_dtype": "float32"}}, {"name": "xception_65/middle_flow/block1/unit_16/xception_module/separable_conv1_pointwise/Conv2D_weights", "shape": [1, 1, 728, 728], "dtype": "float32", "quantization": {"dtype": "uint8", "min": -0.21219161538516773, "scale": 0.0017112227047190946, "original_dtype": "float32"}}, {"name": "xception_65/middle_flow/block1/unit_16/xception_module/separable_conv1_pointwise/Conv2D_bn_offset", "shape": [728], "dtype": "float32", "quantization": {"dtype": "uint8", "min": -1.1844653933655982, "scale": 0.006437311920465208, "original_dtype": "float32"}}, {"name": "xception_65/middle_flow/block1/unit_16/xception_module/separable_conv2_pointwise/Conv2D_weights", "shape": [1, 1, 728, 728], "dtype": "float32", "quantization": {"dtype": "uint8", "min": -0.24785320232896244, "scale": 0.001967088907372718, "original_dtype": "float32"}}, {"name": "xception_65/middle_flow/block1/unit_2/xception_module/separable_conv2_depthwise/BatchNorm/FusedBatchNorm/Scaled", "shape": [728], "dtype": "float32", "quantization": {"dtype": "uint8", "min": 1.7066259384155273, "scale": 0.216036392660702, "original_dtype": "float32"}}, {"name": "xception_65/middle_flow/block1/unit_16/xception_module/separable_conv2_pointwise/Conv2D_bn_offset", "shape": [728], "dtype": "float32", "quantization": {"dtype": "uint8", "min": -1.1863665061984576, "scale": 0.0047265597856512255, "original_dtype": "float32"}}, {"name": "xception_65/middle_flow/block1/unit_16/xception_module/separable_conv3_pointwise/Conv2D_weights", "shape": [1, 1, 728, 728], "dtype": "float32", "quantization": {"dtype": "uint8", "min": -0.9186575838163786, "scale": 0.006907199878318637, "original_dtype": "float32"}}, {"name": "xception_65/middle_flow/block1/unit_16/xception_module/separable_conv3_pointwise/Conv2D_bn_offset", "shape": [728], "dtype": "float32", "quantization": {"dtype": "uint8", "min": -1.1264845969630224, "scale": 0.008869957456401751, "original_dtype": "float32"}}, {"name": "xception_65/exit_flow/block1/unit_1/xception_module/shortcut/Conv2D_weights", "shape": [1, 1, 728, 1024], "dtype": "float32", "quantization": {"dtype": "uint8", "min": -0.14590984232285445, "scale": 0.0010422131594489603, "original_dtype": "float32"}}, {"name": "xception_65/middle_flow/block1/unit_2/xception_module/separable_conv2_depthwise/BatchNorm/FusedBatchNorm/Offset", "shape": [728], "dtype": "float32", "quantization": {"dtype": "uint8", "min": -1.1294772765215706, "scale": 0.009412310637679755, "original_dtype": "float32"}}, {"name": "xception_65/exit_flow/block1/unit_1/xception_module/shortcut/Conv2D_bn_offset", "shape": [1024], "dtype": "float32", "quantization": {"dtype": "uint8", "min": -3.077939583273495, "scale": 0.023317724115708295, "original_dtype": "float32"}}, {"name": "xception_65/exit_flow/block1/unit_1/xception_module/separable_conv1_pointwise/Conv2D_weights", "shape": [1, 1, 728, 728], "dtype": "float32", "quantization": {"dtype": "uint8", "min": -0.32930379194371845, "scale": 0.0022868318884980447, "original_dtype": "float32"}}, {"name": "xception_65/exit_flow/block1/unit_1/xception_module/separable_conv1_pointwise/Conv2D_bn_offset", "shape": [728], "dtype": "float32", "quantization": {"dtype": "uint8", "min": -1.9785546321494907, "scale": 0.015219651016534544, "original_dtype": "float32"}}, {"name": "xception_65/exit_flow/block1/unit_1/xception_module/separable_conv2_pointwise/Conv2D_weights", "shape": [1, 1, 728, 1024], "dtype": "float32", "quantization": {"dtype": "uint8", "min": -0.2854657023560767, "scale": 0.002460911227207558, "original_dtype": "float32"}}, {"name": "xception_65/exit_flow/block1/unit_1/xception_module/separable_conv2_pointwise/Conv2D_bn_offset", "shape": [1024], "dtype": "float32", "quantization": {"dtype": "uint8", "min": -2.2888147830963135, "scale": 0.008772993818217632, "original_dtype": "float32"}}, {"name": "xception_65/middle_flow/block1/unit_2/xception_module/separable_conv1_depthwise/BatchNorm/FusedBatchNorm/Scaled", "shape": [728], "dtype": "float32", "quantization": {"dtype": "uint8", "min": 0.2142254263162613, "scale": 0.4409925586452671, "original_dtype": "float32"}}, {"name": "xception_65/exit_flow/block1/unit_1/xception_module/separable_conv3_pointwise/Conv2D_weights", "shape": [1, 1, 1024, 1024], "dtype": "float32", "quantization": {"dtype": "uint8", "min": -0.689999563553754, "scale": 0.004539470812853645, "original_dtype": "float32"}}, {"name": "xception_65/exit_flow/block1/unit_1/xception_module/separable_conv3_pointwise/Conv2D_bn_offset", "shape": [1024], "dtype": "float32", "quantization": {"dtype": "uint8", "min": -1.0648489395777385, "scale": 0.012527634583267512, "original_dtype": "float32"}}, {"name": "xception_65/exit_flow/block2/unit_1/xception_module/separable_conv1_pointwise/Conv2D_weights", "shape": [1, 1, 1024, 1536], "dtype": "float32", "quantization": {"dtype": "uint8", "min": -0.736240255832672, "scale": 0.005985693136850993, "original_dtype": "float32"}}, {"name": "xception_65/exit_flow/block2/unit_1/xception_module/separable_conv1_pointwise/Conv2D_bn_offset", "shape": [1536], "dtype": "float32", "quantization": {"dtype": "uint8", "min": -2.750017436345418, "scale": 0.02310939022139007, "original_dtype": "float32"}}, {"name": "xception_65/middle_flow/block1/unit_2/xception_module/separable_conv1_depthwise/BatchNorm/FusedBatchNorm/Offset", "shape": [728], "dtype": "float32", "quantization": {"dtype": "uint8", "min": -2.45922324330199, "scale": 0.018772696513755648, "original_dtype": "float32"}}, {"name": "xception_65/exit_flow/block2/unit_1/xception_module/separable_conv2_pointwise/Conv2D_weights", "shape": [1, 1, 1536, 1536], "dtype": "float32", "quantization": {"dtype": "uint8", "min": -0.5420867443084716, "scale": 0.003985931943444644, "original_dtype": "float32"}}, {"name": "xception_65/exit_flow/block2/unit_1/xception_module/separable_conv2_pointwise/Conv2D_bn_offset", "shape": [1536], "dtype": "float32", "quantization": {"dtype": "uint8", "min": -3.1409433776257085, "scale": 0.02243530984018363, "original_dtype": "float32"}}, {"name": "xception_65/exit_flow/block2/unit_1/xception_module/separable_conv3_pointwise/Conv2D_weights", "shape": [1, 1, 1536, 2048], "dtype": "float32", "quantization": {"dtype": "uint8", "min": -1.491372543222764, "scale": 0.010729298872106215, "original_dtype": "float32"}}, {"name": "xception_65/exit_flow/block2/unit_1/xception_module/separable_conv3_pointwise/Conv2D_bn_offset", "shape": [2048], "dtype": "float32", "quantization": {"dtype": "uint8", "min": -17.63341983720368, "scale": 0.1560479631610945, "original_dtype": "float32"}}, {"name": "xception_65/middle_flow/block1/unit_1/xception_module/separable_conv3_depthwise/BatchNorm/FusedBatchNorm/Scaled", "shape": [728], "dtype": "float32", "quantization": {"dtype": "uint8", "min": 1.5826122760772705, "scale": 0.10127646034839106, "original_dtype": "float32"}}, {"name": "aspp0/Conv2D_weights", "shape": [1, 1, 2048, 256], "dtype": "float32", "quantization": {"dtype": "uint8", "min": -0.08509973010011748, "scale": 0.0007807314688084172, "original_dtype": "float32"}}, {"name": "aspp0/Conv2D_bn_offset", "shape": [256], "dtype": "float32", "quantization": {"dtype": "uint8", "min": -0.3111034187616087, "scale": 0.004204100253535252, "original_dtype": "float32"}}, {"name": "image_pooling/Conv2D_weights", "shape": [1, 1, 2048, 256], "dtype": "float32", "quantization": {"dtype": "uint8", "min": -0.30576713435790115, "scale": 0.002426723288554771, "original_dtype": "float32"}}, {"name": "xception_65/middle_flow/block1/unit_1/xception_module/separable_conv3_depthwise/BatchNorm/FusedBatchNorm/Offset", "shape": [728], "dtype": "float32", "quantization": {"dtype": "uint8", "min": -0.9330329488305485, "scale": 0.009237949988421272, "original_dtype": "float32"}}, {"name": "image_pooling/Conv2D_bn_offset", "shape": [256], "dtype": "float32", "quantization": {"dtype": "uint8", "min": -0.5547059213413912, "scale": 0.012326798252030915, "original_dtype": "float32"}}, {"name": "aspp1_pointwise/Conv2D_weights", "shape": [1, 1, 2048, 256], "dtype": "float32", "quantization": {"dtype": "uint8", "min": -0.1361372386707979, "scale": 0.0011941863041298063, "original_dtype": "float32"}}, {"name": "aspp1_pointwise/Conv2D_bn_offset", "shape": [256], "dtype": "float32", "quantization": {"dtype": "uint8", "min": -1.0633227404426124, "scale": 0.008861022837021771, "original_dtype": "float32"}}, {"name": "aspp2_pointwise/Conv2D_weights", "shape": [1, 1, 2048, 256], "dtype": "float32", "quantization": {"dtype": "uint8", "min": -0.2002013641245225, "scale": 0.001588899715273988, "original_dtype": "float32"}}, {"name": "xception_65/middle_flow/block1/unit_1/xception_module/separable_conv2_depthwise/BatchNorm/FusedBatchNorm/Scaled", "shape": [728], "dtype": "float32", "quantization": {"dtype": "uint8", "min": 1.142896294593811, "scale": 0.14520180786357206, "original_dtype": "float32"}}, {"name": "aspp2_pointwise/Conv2D_bn_offset", "shape": [256], "dtype": "float32", "quantization": {"dtype": "uint8", "min": -0.3849320280785654, "scale": 0.006873786215688668, "original_dtype": "float32"}}, {"name": "aspp3_pointwise/Conv2D_weights", "shape": [1, 1, 2048, 256], "dtype": "float32", "quantization": {"dtype": "uint8", "min": -0.17364657217381047, "scale": 0.001593087818108353, "original_dtype": "float32"}}, {"name": "aspp3_pointwise/Conv2D_bn_offset", "shape": [256], "dtype": "float32", "quantization": {"dtype": "uint8", "min": -0.7672479751063328, "scale": 0.007238188444399366, "original_dtype": "float32"}}, {"name": "xception_65/middle_flow/block1/unit_1/xception_module/separable_conv2_depthwise/BatchNorm/FusedBatchNorm/Offset", "shape": [728], "dtype": "float32", "quantization": {"dtype": "uint8", "min": -0.9963710518444285, "scale": 0.008166975834790398, "original_dtype": "float32"}}, {"name": "concat_projection/Conv2D_weights", "shape": [1, 1, 1280, 256], "dtype": "float32", "quantization": {"dtype": "uint8", "min": -0.1854189397657619, "scale": 0.0014833515181260951, "original_dtype": "float32"}}, {"name": "concat_projection/Conv2D_bn_offset", "shape": [256], "dtype": "float32", "quantization": {"dtype": "uint8", "min": -0.7551463014939251, "scale": 0.008484789904426126, "original_dtype": "float32"}}, {"name": "decoder/decoder_conv0_depthwise/depthwise_weights", "shape": [3, 3, 304, 1], "dtype": "float32", "quantization": {"dtype": "uint8", "min": -7.45003298217175, "scale": 0.04933796676934934, "original_dtype": "float32"}}, {"name": "decoder/decoder_conv0_depthwise/depthwise_bn_offset", "shape": [304], "dtype": "float32", "quantization": {"dtype": "uint8", "min": -1.136135176116345, "scale": 0.008739501354741115, "original_dtype": "float32"}}, {"name": "decoder/decoder_conv0_pointwise/Conv2D_weights", "shape": [1, 1, 304, 256], "dtype": "float32", "quantization": {"dtype": "uint8", "min": -0.28197846050355946, "scale": 0.0029681943210900998, "original_dtype": "float32"}}, {"name": "decoder/decoder_conv0_pointwise/Conv2D_bn_offset", "shape": [256], "dtype": "float32", "quantization": {"dtype": "uint8", "min": -1.812081161667319, "scale": 0.013422823419757918, "original_dtype": "float32"}}, {"name": "xception_65/middle_flow/block1/unit_1/xception_module/separable_conv1_depthwise/BatchNorm/FusedBatchNorm/Scaled", "shape": [728], "dtype": "float32", "quantization": {"dtype": "uint8", "min": 0.21537363529205322, "scale": 0.17076493945776247, "original_dtype": "float32"}}, {"name": "decoder/decoder_conv1_depthwise/depthwise_weights", "shape": [3, 3, 256, 1], "dtype": "float32", "quantization": {"dtype": "uint8", "min": -2.575864522597369, "scale": 0.022205728643080767, "original_dtype": "float32"}}, {"name": "decoder/decoder_conv1_depthwise/depthwise_bn_offset", "shape": [256], "dtype": "float32", "quantization": {"dtype": "uint8", "min": -0.9691427866617839, "scale": 0.008144057030771293, "original_dtype": "float32"}}, {"name": "decoder/decoder_conv1_pointwise/Conv2D_weights", "shape": [1, 1, 256, 256], "dtype": "float32", "quantization": {"dtype": "uint8", "min": -0.36741198406499975, "scale": 0.002762496120789472, "original_dtype": "float32"}}, {"name": "decoder/decoder_conv1_pointwise/Conv2D_bn_offset", "shape": [256], "dtype": "float32", "quantization": {"dtype": "uint8", "min": -1.2324309162065095, "scale": 0.0129729570127001, "original_dtype": "float32"}}, {"name": "xception_65/middle_flow/block1/unit_1/xception_module/separable_conv1_depthwise/BatchNorm/FusedBatchNorm/Offset", "shape": [728], "dtype": "float32", "quantization": {"dtype": "uint8", "min": -8.85506955315085, "scale": 0.08353839201085708, "original_dtype": "float32"}}, {"name": "aspp3_depthwise/BatchNorm/FusedBatchNorm/Scaled", "shape": [2048], "dtype": "float32", "quantization": {"dtype": "uint8", "min": 1.076682448387146, "scale": 0.03515318935992671, "original_dtype": "float32"}}, {"name": "aspp3_depthwise/BatchNorm/FusedBatchNorm/Offset", "shape": [2048], "dtype": "float32", "quantization": {"dtype": "uint8", "min": -0.4805012590744916, "scale": 0.003875010153826545, "original_dtype": "float32"}}, {"name": "aspp2_depthwise/BatchNorm/FusedBatchNorm/Scaled", "shape": [2048], "dtype": "float32", "quantization": {"dtype": "uint8", "min": 1.0311940908432007, "scale": 0.03778208798053218, "original_dtype": "float32"}}, {"name": "aspp2_depthwise/BatchNorm/FusedBatchNorm/Offset", "shape": [2048], "dtype": "float32", "quantization": {"dtype": "uint8", "min": -0.6033573936013614, "scale": 0.004677189097684972, "original_dtype": "float32"}}, {"name": "aspp1_depthwise/BatchNorm/FusedBatchNorm/Scaled", "shape": [2048], "dtype": "float32", "quantization": {"dtype": "uint8", "min": 0.8315297961235046, "scale": 0.036752438311483344, "original_dtype": "float32"}}, {"name": "aspp1_depthwise/BatchNorm/FusedBatchNorm/Offset", "shape": [2048], "dtype": "float32", "quantization": {"dtype": "uint8", "min": -0.6390214842908523, "scale": 0.004878026597640093, "original_dtype": "float32"}}, {"name": "xception_65/exit_flow/block2/unit_1/xception_module/separable_conv3_depthwise/BatchNorm/FusedBatchNorm/Scaled", "shape": [1536], "dtype": "float32", "quantization": {"dtype": "uint8", "min": 0.29221153259277344, "scale": 0.2781081629734413, "original_dtype": "float32"}}, {"name": "xception_65/exit_flow/block2/unit_1/xception_module/separable_conv3_depthwise/BatchNorm/FusedBatchNorm/Offset", "shape": [1536], "dtype": "float32", "quantization": {"dtype": "uint8", "min": -8.842470664604038, "scale": 0.05855940837486118, "original_dtype": "float32"}}, {"name": "xception_65/exit_flow/block2/unit_1/xception_module/separable_conv2_depthwise/BatchNorm/FusedBatchNorm/Scaled", "shape": [1536], "dtype": "float32", "quantization": {"dtype": "uint8", "min": 0.11561822891235352, "scale": 0.3023247419619093, "original_dtype": "float32"}}, {"name": "xception_65/exit_flow/block2/unit_1/xception_module/separable_conv2_depthwise/BatchNorm/FusedBatchNorm/Offset", "shape": [1536], "dtype": "float32", "quantization": {"dtype": "uint8", "min": -5.268932058296952, "scale": 0.059874227935192634, "original_dtype": "float32"}}, {"name": "xception_65/exit_flow/block2/unit_1/xception_module/separable_conv1_depthwise/BatchNorm/FusedBatchNorm/Scaled", "shape": [1024], "dtype": "float32", "quantization": {"dtype": "uint8", "min": 0.09814447909593582, "scale": 0.0030003023790378196, "original_dtype": "float32"}}, {"name": "xception_65/exit_flow/block2/unit_1/xception_module/separable_conv1_depthwise/BatchNorm/FusedBatchNorm/Offset", "shape": [1024], "dtype": "float32", "quantization": {"dtype": "uint8", "min": -3.449373722076416, "scale": 0.03832637468973796, "original_dtype": "float32"}}, {"name": "xception_65/exit_flow/block1/unit_1/xception_module/separable_conv3_depthwise/BatchNorm/FusedBatchNorm/Scaled", "shape": [1024], "dtype": "float32", "quantization": {"dtype": "uint8", "min": 1.156389594078064, "scale": 0.31316195329030355, "original_dtype": "float32"}}, {"name": "xception_65/exit_flow/block1/unit_1/xception_module/separable_conv3_depthwise/BatchNorm/FusedBatchNorm/Offset", "shape": [1024], "dtype": "float32", "quantization": {"dtype": "uint8", "min": -0.8309097925821941, "scale": 0.0061096308278102505, "original_dtype": "float32"}}, {"name": "xception_65/exit_flow/block1/unit_1/xception_module/separable_conv2_depthwise/BatchNorm/FusedBatchNorm/Scaled", "shape": [728], "dtype": "float32", "quantization": {"dtype": "uint8", "min": 0.7159047722816467, "scale": 0.24317572888206032, "original_dtype": "float32"}}, {"name": "xception_65/exit_flow/block1/unit_1/xception_module/separable_conv2_depthwise/BatchNorm/FusedBatchNorm/Offset", "shape": [728], "dtype": "float32", "quantization": {"dtype": "uint8", "min": -6.196978232439826, "scale": 0.03442765684688792, "original_dtype": "float32"}}, {"name": "xception_65/exit_flow/block1/unit_1/xception_module/separable_conv1_depthwise/BatchNorm/FusedBatchNorm/Scaled", "shape": [728], "dtype": "float32", "quantization": {"dtype": "uint8", "min": 0.07597384601831436, "scale": 0.008581853935531542, "original_dtype": "float32"}}, {"name": "xception_65/exit_flow/block1/unit_1/xception_module/separable_conv1_depthwise/BatchNorm/FusedBatchNorm/Offset", "shape": [728], "dtype": "float32", "quantization": {"dtype": "uint8", "min": -4.091140417959176, "scale": 0.03652803944606407, "original_dtype": "float32"}}, {"name": "xception_65/middle_flow/block1/unit_16/xception_module/separable_conv3_depthwise/BatchNorm/FusedBatchNorm/Scaled", "shape": [728], "dtype": "float32", "quantization": {"dtype": "uint8", "min": 1.447697401046753, "scale": 0.18303647228315764, "original_dtype": "float32"}}, {"name": "xception_65/middle_flow/block1/unit_16/xception_module/separable_conv3_depthwise/BatchNorm/FusedBatchNorm/Offset", "shape": [728], "dtype": "float32", "quantization": {"dtype": "uint8", "min": -1.612849749770819, "scale": 0.01152035535550585, "original_dtype": "float32"}}, {"name": "xception_65/middle_flow/block1/unit_16/xception_module/separable_conv2_depthwise/BatchNorm/FusedBatchNorm/Scaled", "shape": [728], "dtype": "float32", "quantization": {"dtype": "uint8", "min": 1.3931148052215576, "scale": 0.039536017062617286, "original_dtype": "float32"}}, {"name": "xception_65/middle_flow/block1/unit_16/xception_module/separable_conv2_depthwise/BatchNorm/FusedBatchNorm/Offset", "shape": [728], "dtype": "float32", "quantization": {"dtype": "uint8", "min": -0.7538398256488875, "scale": 0.008019572613286037, "original_dtype": "float32"}}, {"name": "xception_65/middle_flow/block1/unit_16/xception_module/separable_conv1_depthwise/BatchNorm/FusedBatchNorm/Scaled", "shape": [728], "dtype": "float32", "quantization": {"dtype": "uint8", "min": 0.1390756517648697, "scale": 0.01943295089637532, "original_dtype": "float32"}}, {"name": "xception_65/middle_flow/block1/unit_16/xception_module/separable_conv1_depthwise/BatchNorm/FusedBatchNorm/Offset", "shape": [728], "dtype": "float32", "quantization": {"dtype": "uint8", "min": -2.457616820054896, "scale": 0.023405874476713294, "original_dtype": "float32"}}, {"name": "xception_65/middle_flow/block1/unit_15/xception_module/separable_conv3_depthwise/BatchNorm/FusedBatchNorm/Scaled", "shape": [728], "dtype": "float32", "quantization": {"dtype": "uint8", "min": 1.8379405736923218, "scale": 0.11504074405221378, "original_dtype": "float32"}}, {"name": "xception_65/middle_flow/block1/unit_15/xception_module/separable_conv3_depthwise/BatchNorm/FusedBatchNorm/Offset", "shape": [728], "dtype": "float32", "quantization": {"dtype": "uint8", "min": -1.0790302753448486, "scale": 0.008300232887268066, "original_dtype": "float32"}}, {"name": "xception_65/middle_flow/block1/unit_15/xception_module/separable_conv2_depthwise/BatchNorm/FusedBatchNorm/Scaled", "shape": [728], "dtype": "float32", "quantization": {"dtype": "uint8", "min": 1.7383114099502563, "scale": 0.0913763396880206, "original_dtype": "float32"}}, {"name": "xception_65/middle_flow/block1/unit_15/xception_module/separable_conv2_depthwise/BatchNorm/FusedBatchNorm/Offset", "shape": [728], "dtype": "float32", "quantization": {"dtype": "uint8", "min": -0.8873275195851046, "scale": 0.0067221781786750345, "original_dtype": "float32"}}, {"name": "xception_65/middle_flow/block1/unit_15/xception_module/separable_conv1_depthwise/BatchNorm/FusedBatchNorm/Scaled", "shape": [728], "dtype": "float32", "quantization": {"dtype": "uint8", "min": 0.14819805324077606, "scale": 0.02124767145689796, "original_dtype": "float32"}}, {"name": "xception_65/middle_flow/block1/unit_15/xception_module/separable_conv1_depthwise/BatchNorm/FusedBatchNorm/Offset", "shape": [728], "dtype": "float32", "quantization": {"dtype": "uint8", "min": -1.5817814602571376, "scale": 0.013875275967167873, "original_dtype": "float32"}}, {"name": "xception_65/middle_flow/block1/unit_14/xception_module/separable_conv3_depthwise/BatchNorm/FusedBatchNorm/Scaled", "shape": [728], "dtype": "float32", "quantization": {"dtype": "uint8", "min": 1.6241466999053955, "scale": 0.09806123901815976, "original_dtype": "float32"}}, {"name": "xception_65/middle_flow/block1/unit_14/xception_module/separable_conv3_depthwise/BatchNorm/FusedBatchNorm/Offset", "shape": [728], "dtype": "float32", "quantization": {"dtype": "uint8", "min": -0.9497511688400717, "scale": 0.007478355660158045, "original_dtype": "float32"}}, {"name": "xception_65/middle_flow/block1/unit_14/xception_module/separable_conv2_depthwise/BatchNorm/FusedBatchNorm/Scaled", "shape": [728], "dtype": "float32", "quantization": {"dtype": "uint8", "min": 1.4241001605987549, "scale": 0.10304676411198635, "original_dtype": "float32"}}, {"name": "xception_65/middle_flow/block1/unit_14/xception_module/separable_conv2_depthwise/BatchNorm/FusedBatchNorm/Offset", "shape": [728], "dtype": "float32", "quantization": {"dtype": "uint8", "min": -0.8014214101959677, "scale": 0.0056838397886238845, "original_dtype": "float32"}}, {"name": "xception_65/middle_flow/block1/unit_14/xception_module/separable_conv1_depthwise/BatchNorm/FusedBatchNorm/Scaled", "shape": [728], "dtype": "float32", "quantization": {"dtype": "uint8", "min": 0.12746846675872803, "scale": 0.04072846665101893, "original_dtype": "float32"}}, {"name": "xception_65/middle_flow/block1/unit_14/xception_module/separable_conv1_depthwise/BatchNorm/FusedBatchNorm/Offset", "shape": [728], "dtype": "float32", "quantization": {"dtype": "uint8", "min": -2.7834919555514466, "scale": 0.02124803019504921, "original_dtype": "float32"}}, {"name": "xception_65/middle_flow/block1/unit_13/xception_module/separable_conv3_depthwise/BatchNorm/FusedBatchNorm/Scaled", "shape": [728], "dtype": "float32", "quantization": {"dtype": "uint8", "min": 1.8104583024978638, "scale": 0.09092200363383574, "original_dtype": "float32"}}, {"name": "xception_65/middle_flow/block1/unit_13/xception_module/separable_conv3_depthwise/BatchNorm/FusedBatchNorm/Offset", "shape": [728], "dtype": "float32", "quantization": {"dtype": "uint8", "min": -1.035815351149615, "scale": 0.006951780880198759, "original_dtype": "float32"}}, {"name": "xception_65/middle_flow/block1/unit_13/xception_module/separable_conv2_depthwise/BatchNorm/FusedBatchNorm/Scaled", "shape": [728], "dtype": "float32", "quantization": {"dtype": "uint8", "min": 1.652650237083435, "scale": 0.07980778497808119, "original_dtype": "float32"}}, {"name": "xception_65/middle_flow/block1/unit_13/xception_module/separable_conv2_depthwise/BatchNorm/FusedBatchNorm/Offset", "shape": [728], "dtype": "float32", "quantization": {"dtype": "uint8", "min": -1.1645460988961014, "scale": 0.007712225820503983, "original_dtype": "float32"}}, {"name": "xception_65/middle_flow/block1/unit_13/xception_module/separable_conv1_depthwise/BatchNorm/FusedBatchNorm/Scaled", "shape": [728], "dtype": "float32", "quantization": {"dtype": "uint8", "min": 0.11444978415966034, "scale": 0.060849558898046906, "original_dtype": "float32"}}, {"name": "xception_65/middle_flow/block1/unit_13/xception_module/separable_conv1_depthwise/BatchNorm/FusedBatchNorm/Offset", "shape": [728], "dtype": "float32", "quantization": {"dtype": "uint8", "min": -2.574189957450418, "scale": 0.01965030501870548, "original_dtype": "float32"}}, {"name": "xception_65/middle_flow/block1/unit_12/xception_module/separable_conv3_depthwise/BatchNorm/FusedBatchNorm/Scaled", "shape": [728], "dtype": "float32", "quantization": {"dtype": "uint8", "min": 1.6938843727111816, "scale": 0.12910277983721566, "original_dtype": "float32"}}, {"name": "xception_65/middle_flow/block1/unit_12/xception_module/separable_conv3_depthwise/BatchNorm/FusedBatchNorm/Offset", "shape": [728], "dtype": "float32", "quantization": {"dtype": "uint8", "min": -1.2041832232007794, "scale": 0.008304711884143307, "original_dtype": "float32"}}, {"name": "xception_65/middle_flow/block1/unit_12/xception_module/separable_conv2_depthwise/BatchNorm/FusedBatchNorm/Scaled", "shape": [728], "dtype": "float32", "quantization": {"dtype": "uint8", "min": 1.3947333097457886, "scale": 0.06986401922562543, "original_dtype": "float32"}}, {"name": "xception_65/middle_flow/block1/unit_12/xception_module/separable_conv2_depthwise/BatchNorm/FusedBatchNorm/Offset", "shape": [728], "dtype": "float32", "quantization": {"dtype": "uint8", "min": -2.0391571662005257, "scale": 0.015104867897781671, "original_dtype": "float32"}}, {"name": "xception_65/middle_flow/block1/unit_12/xception_module/separable_conv1_depthwise/BatchNorm/FusedBatchNorm/Scaled", "shape": [728], "dtype": "float32", "quantization": {"dtype": "uint8", "min": 0.15164481103420258, "scale": 0.08209286443158692, "original_dtype": "float32"}}, {"name": "xception_65/middle_flow/block1/unit_12/xception_module/separable_conv1_depthwise/BatchNorm/FusedBatchNorm/Offset", "shape": [728], "dtype": "float32", "quantization": {"dtype": "uint8", "min": -5.480547649720136, "scale": 0.026476075602512732, "original_dtype": "float32"}}, {"name": "xception_65/middle_flow/block1/unit_11/xception_module/separable_conv3_depthwise/BatchNorm/FusedBatchNorm/Scaled", "shape": [728], "dtype": "float32", "quantization": {"dtype": "uint8", "min": 1.8249647617340088, "scale": 0.11138914426167806, "original_dtype": "float32"}}, {"name": "xception_65/middle_flow/block1/unit_11/xception_module/separable_conv3_depthwise/BatchNorm/FusedBatchNorm/Offset", "shape": [728], "dtype": "float32", "quantization": {"dtype": "uint8", "min": -1.176528305165908, "scale": 0.008525567428738463, "original_dtype": "float32"}}, {"name": "xception_65/middle_flow/block1/unit_11/xception_module/separable_conv2_depthwise/BatchNorm/FusedBatchNorm/Scaled", "shape": [728], "dtype": "float32", "quantization": {"dtype": "uint8", "min": 1.4336143732070923, "scale": 0.0903761859033622, "original_dtype": "float32"}}, {"name": "xception_65/middle_flow/block1/unit_11/xception_module/separable_conv2_depthwise/BatchNorm/FusedBatchNorm/Offset", "shape": [728], "dtype": "float32", "quantization": {"dtype": "uint8", "min": -0.7834203958511352, "scale": 0.0076805921161876, "original_dtype": "float32"}}, {"name": "xception_65/middle_flow/block1/unit_11/xception_module/separable_conv1_depthwise/BatchNorm/FusedBatchNorm/Scaled", "shape": [728], "dtype": "float32", "quantization": {"dtype": "uint8", "min": 0.14413519203662872, "scale": 0.1678714651103113, "original_dtype": "float32"}}, {"name": "xception_65/middle_flow/block1/unit_11/xception_module/separable_conv1_depthwise/BatchNorm/FusedBatchNorm/Offset", "shape": [728], "dtype": "float32", "quantization": {"dtype": "uint8", "min": -2.5588844505010866, "scale": 0.023476004133037492, "original_dtype": "float32"}}, {"name": "xception_65/middle_flow/block1/unit_10/xception_module/separable_conv3_depthwise/BatchNorm/FusedBatchNorm/Scaled", "shape": [728], "dtype": "float32", "quantization": {"dtype": "uint8", "min": 2.0471956729888916, "scale": 0.27742551822288364, "original_dtype": "float32"}}, {"name": "xception_65/middle_flow/block1/unit_10/xception_module/separable_conv3_depthwise/BatchNorm/FusedBatchNorm/Offset", "shape": [728], "dtype": "float32", "quantization": {"dtype": "uint8", "min": -1.228427774765912, "scale": 0.009377311257755054, "original_dtype": "float32"}}, {"name": "xception_65/middle_flow/block1/unit_10/xception_module/separable_conv2_depthwise/BatchNorm/FusedBatchNorm/Scaled", "shape": [728], "dtype": "float32", "quantization": {"dtype": "uint8", "min": 1.799577236175537, "scale": 0.1106986868615244, "original_dtype": "float32"}}, {"name": "xception_65/middle_flow/block1/unit_10/xception_module/separable_conv2_depthwise/BatchNorm/FusedBatchNorm/Offset", "shape": [728], "dtype": "float32", "quantization": {"dtype": "uint8", "min": -0.9434692682004443, "scale": 0.006332008511412378, "original_dtype": "float32"}}, {"name": "xception_65/middle_flow/block1/unit_10/xception_module/separable_conv1_depthwise/BatchNorm/FusedBatchNorm/Scaled", "shape": [728], "dtype": "float32", "quantization": {"dtype": "uint8", "min": 0.14656521379947662, "scale": 0.28555233238958844, "original_dtype": "float32"}}, {"name": "xception_65/middle_flow/block1/unit_10/xception_module/separable_conv1_depthwise/BatchNorm/FusedBatchNorm/Offset", "shape": [728], "dtype": "float32", "quantization": {"dtype": "uint8", "min": -4.9939662147970765, "scale": 0.03082695194319183, "original_dtype": "float32"}}, {"name": "xception_65/middle_flow/block1/unit_9/xception_module/separable_conv3_depthwise/BatchNorm/FusedBatchNorm/Scaled", "shape": [728], "dtype": "float32", "quantization": {"dtype": "uint8", "min": 1.9456474781036377, "scale": 0.22224297897488463, "original_dtype": "float32"}}, {"name": "xception_65/middle_flow/block1/unit_9/xception_module/separable_conv3_depthwise/BatchNorm/FusedBatchNorm/Offset", "shape": [728], "dtype": "float32", "quantization": {"dtype": "uint8", "min": -0.8014861859527288, "scale": 0.0064118894876218305, "original_dtype": "float32"}}, {"name": "xception_65/middle_flow/block1/unit_9/xception_module/separable_conv2_depthwise/BatchNorm/FusedBatchNorm/Scaled", "shape": [728], "dtype": "float32", "quantization": {"dtype": "uint8", "min": 1.6716926097869873, "scale": 0.21392582631578633, "original_dtype": "float32"}}, {"name": "xception_65/middle_flow/block1/unit_9/xception_module/separable_conv2_depthwise/BatchNorm/FusedBatchNorm/Offset", "shape": [728], "dtype": "float32", "quantization": {"dtype": "uint8", "min": -2.0919116338094077, "scale": 0.015381703189775055, "original_dtype": "float32"}}, {"name": "xception_65/middle_flow/block1/unit_9/xception_module/separable_conv1_depthwise/BatchNorm/FusedBatchNorm/Scaled", "shape": [728], "dtype": "float32", "quantization": {"dtype": "uint8", "min": 0.10319781303405762, "scale": 0.18459290616652546, "original_dtype": "float32"}}, {"name": "xception_65/middle_flow/block1/unit_9/xception_module/separable_conv1_depthwise/BatchNorm/FusedBatchNorm/Offset", "shape": [728], "dtype": "float32", "quantization": {"dtype": "uint8", "min": -1.2126165628433228, "scale": 0.014266077209921443, "original_dtype": "float32"}}, {"name": "xception_65/middle_flow/block1/unit_8/xception_module/separable_conv3_depthwise/BatchNorm/FusedBatchNorm/Scaled", "shape": [728], "dtype": "float32", "quantization": {"dtype": "uint8", "min": 2.0039114952087402, "scale": 0.2598645472059063, "original_dtype": "float32"}}, {"name": "xception_65/middle_flow/block1/unit_8/xception_module/separable_conv3_depthwise/BatchNorm/FusedBatchNorm/Offset", "shape": [728], "dtype": "float32", "quantization": {"dtype": "uint8", "min": -0.7270364543970893, "scale": 0.010536760208653469, "original_dtype": "float32"}}, {"name": "xception_65/middle_flow/block1/unit_8/xception_module/separable_conv2_depthwise/BatchNorm/FusedBatchNorm/Scaled", "shape": [728], "dtype": "float32", "quantization": {"dtype": "uint8", "min": 1.594929575920105, "scale": 0.20877112267064113, "original_dtype": "float32"}}, {"name": "xception_65/middle_flow/block1/unit_8/xception_module/separable_conv2_depthwise/BatchNorm/FusedBatchNorm/Offset", "shape": [728], "dtype": "float32", "quantization": {"dtype": "uint8", "min": -1.0653032155597912, "scale": 0.00755534195432476, "original_dtype": "float32"}}, {"name": "xception_65/middle_flow/block1/unit_8/xception_module/separable_conv1_depthwise/BatchNorm/FusedBatchNorm/Scaled", "shape": [728], "dtype": "float32", "quantization": {"dtype": "uint8", "min": 0.1591353714466095, "scale": 0.16956466401324552, "original_dtype": "float32"}}, {"name": "xception_65/middle_flow/block1/unit_8/xception_module/separable_conv1_depthwise/BatchNorm/FusedBatchNorm/Offset", "shape": [728], "dtype": "float32", "quantization": {"dtype": "uint8", "min": -2.8255026050642424, "scale": 0.025922042248295803, "original_dtype": "float32"}}, {"name": "xception_65/middle_flow/block1/unit_7/xception_module/separable_conv3_depthwise/BatchNorm/FusedBatchNorm/Scaled", "shape": [728], "dtype": "float32", "quantization": {"dtype": "uint8", "min": 1.4334406852722168, "scale": 0.2258018362755869, "original_dtype": "float32"}}, {"name": "xception_65/middle_flow/block1/unit_7/xception_module/separable_conv3_depthwise/BatchNorm/FusedBatchNorm/Offset", "shape": [728], "dtype": "float32", "quantization": {"dtype": "uint8", "min": -1.0267072041829428, "scale": 0.008850924173990886, "original_dtype": "float32"}}, {"name": "xception_65/middle_flow/block1/unit_7/xception_module/separable_conv2_depthwise/BatchNorm/FusedBatchNorm/Scaled", "shape": [728], "dtype": "float32", "quantization": {"dtype": "uint8", "min": 1.7170321941375732, "scale": 0.16725887691273408, "original_dtype": "float32"}}, {"name": "xception_65/middle_flow/block1/unit_7/xception_module/separable_conv2_depthwise/BatchNorm/FusedBatchNorm/Offset", "shape": [728], "dtype": "float32", "quantization": {"dtype": "uint8", "min": -1.5924830745248235, "scale": 0.013969149776533539, "original_dtype": "float32"}}]}]}